cs294-homework/hw2/data/rtg_only_Walker2d-v2_11-04-2019_10-32-09/1/vars_policy.pkl (torch_old, 13326 bytes, 5 tensors)

std f4 [1, 6]
0	0x3f830714	1.0236535
1	0x3f8a5e84	1.0810094
2	0x3f7de2b3	0.9917404
3	0x3f666389	0.8999563
4	0x3f7232ac	0.9460857
5	0x3f817006	1.0112312

mean.fc0.weight f4 [128, 17]
0	0x3e4f0b5c	0.20219177
1	0xbe37057a	-0.17873183
2	0xbcd939b7	-0.026516778
3	0x3dd6ffba	0.10497995
4	0xbe503da3	-0.20336013
5	0x3e03b018	0.12860143
6	0xbcc32d7a	-0.023825396
7	0x3e378840	0.17923069
8	0xbd186504	-0.03720571
9	0x3c65742c	0.014004748
10	0x3c9caffc	0.019126885
11	0xbcafd312	-0.02146295
12	0x3dd5f303	0.104467414
13	0xbe0fe271	-0.14051224
14	0xbd917abd	-0.071034886
15	0xbc884ba1	-0.016637625
16	0x3d7d5947	0.06185272
17	0x3bfa05bc	0.007630078
18	0x3e835925	0.2565395
19	0x3e1c6f85	0.15276916
20	0xbdd6c459	-0.10486669
21	0xbdb765a1	-0.08954931
22	0xbd43dfd0	-0.047820866
23	0xbd0b956f	-0.034078058
24	0xbd1c67af	-0.038184818
25	0x3da109dd	0.078632094
26	0x3d9ee64d	0.0775877
27	0x3e171d94	0.14757377
28	0xbe668773	-0.22512607
29	0x3e4d4452	0.20045593
30	0x3dd4dd7f	0.103938095
31	0x3e89aca0	0.26889515
32	0x3dd88c15	0.105735935
33	0xbe164805	-0.14675911
34	0xbe24a557	-0.16078697
35	0xbe2c87ac	-0.1684863
36	0x3e46b281	0.19404031
37	0xbd80dd43	-0.06292202
38	0x3e17ee05	0.14836891
39	0xbda252e6	-0.07925968
40	0x3e00b164	0.12567669
41	0xbcbcec3e	-0.023061868
42	0x3dedbe26	0.116085336
43	0xbd8541f8	-0.06506723
44	0xbe1e2885	-0.15445144
45	0x3e13b806	0.14425668
46	0xbe4397e7	-0.19100915
47	0x3dbd7380	0.092505455
48	0xbd93fad2	-0.072255746
49	0xbcd0d820	-0.025493681
50	0xbe7df441	-0.24800207
51	0xbd795acc	-0.060877606
52	0x3e2ab795	0.16671593
53	0x3d8ad172	0.0677823
54	0x3e56ff6e	0.20995876
55	0x3e8624e9	0.26200035
56	0xbb82754b	-0.0039812676
57	0xbe318082	-0.17334178
58	0x3e53660c	0.20644397
59	0x3dc0d04d	0.0941473
60	0xbe3c0b1c	-0.18363613
61	0x3e4c8d90	0.19975877
62	0x3e07d453	0.13264589
63	0x3ea06506	0.31327075
64	0xbd066a55	-0.03281625
65	0x3c17de0f	0.0092692515
66	0xbd48dc66	-0.049038313
67	0x3d99452f	0.07483899
68	0xbe658cd4	-0.22417003
69	0xbe71e467	-0.23622285
70	0x3d9e9139	0.07742543
71	0xbd55d849	-0.05220822
72	0x3de5a6c0	0.11213446
73	0xbc751a7f	-0.01495993
74	0xbc2a389b	-0.010389472
75	0x3d2b6992	0.041848727
76	0x3d25691c	0.040383443
77	0x3e495d20	0.1966443
78	0xbe85032b	-0.2597898
79	0x3d97a979	0.07405371
80	0xbe17d302	-0.14826587
81	0xbe2fd915	-0.17172654
82	0xbc404c5a	-0.011736954
83	0xbd35fc19	-0.044429872
84	0x3e2c4f05	0.16827019
85	0xbe640af9	-0.2226981
86	0xbe1d9efa	-0.15392676
87	0x3e8107c3	0.25201234
88	0x3d43327f	0.04765558
89	0x3d028459	0.031864498
90	0x3e1ec5eb	0.15505187
91	0xbe571f89	-0.21008123
92	0xbc4d7eb3	-0.0125424145
93	0x3d9351a3	0.07193305
94	0xbe167823	-0.14694266
95	0xbd8d1f3e	-0.068907246
96	0x3df7301c	0.12069723
97	0x3cdbce0b	0.026831647
98	0xbdc0d192	-0.09414972
99	0xbbb28d18	-0.0054489486
100	0x3e18d377	0.14924417
101	0xbd0e5f15	-0.034758646
102	0x3d656057	0.05600008
103	0x3e100713	0.14065199
104	0xbe3b6abf	-0.18302439
105	0xbe035e63	-0.12828974
106	0x3e51f444	0.20503336
107	0x3d69c37c	0.057071194
108	0x3e5c92a0	0.21540308
109	0xbc8bff29	-0.017089443
110	0x3da9301b	0.082611285
111	0x3e10f044	0.14154154
112	0x3e316adb	0.17325918
113	0xbe4d8e4e	-0.20073816
114	0x3b8a3ca3	0.0042186542
115	0x3e3f61f8	0.18689716
116	0x3de5d341	0.11221934
117	0x3e45f844	0.19332987
118	0xbe288f16	-0.16460833
119	0xbe6d7bd1	-0.23191763
120	0xbe0efa99	-0.13962783
121	0xbcd438b0	-0.025905937
122	0x3e98a7e9	0.29815605
123	0xbe3ce87c	-0.18448061
124	0x3dfd49e3	0.123676084
125	0xbe1e7124	-0.15472847
126	0xbe8e617c	-0.2780875
127	0xbd98739f	-0.07443928
128	0x3ddb9936	0.10722582
129	0x3e4b1dae	0.1983554
130	0xbe224adc	-0.15848869
131	0x3d2ac4cc	0.041691586
132	0x3e565800	0.20932007
133	0x3e117880	0.14206123
134	0x3e00c59e	0.12575385
135	0x3e65eaac	0.22452801
136	0x3e5c59b6	0.21518597
137	0x3cea23dc	0.028581552
138	0xbe622891	-0.22085787
139	0xbddf034d	-0.108893014
140	0xbd8bff39	-0.06835789
141	0xbc99bdb2	-0.018767212
142	0xbe234cf6	-0.15947327
143	0x3e0dfdf5	0.13866408
144	0x3cca26c6	0.024676692
145	0xbdc40a8f	-0.095723264
146	0x3d266da4	0.040631905
147	0x3cc1fa8d	0.023679042
148	0x3e063a52	0.13108185
149	0x3e0954e9	0.13411297
150	0xbe09fda6	-0.13475665
151	0x3e8b2f87	0.27184698
152	0xbdc28d65	-0.09499625
153	0x3c227eb9	0.009917908
154	0xbe665d9c	-0.22496647
155	0xbe867a93	-0.26265392
156	0xbe17e507	-0.14833461
157	0xbdb8d45d	-0.0902488
158	0x3e0ba6ff	0.13637923
159	0xbdb667bd	-0.08906505
160	0xbe15e4fb	-0.1463813
161	0x3dd2f5b4	0.103007704
162	0x3db03eea	0.0860575
163	0x3e14a915	0.14517625
164	0xbe0ae302	-0.13563159
165	0xbba4cdd4	-0.0050294194
166	0xbe0bce11	-0.13652827
167	0xbdef6e7d	-0.11690996
168	0xbe1dcc3b	-0.15409939
169	0xbe13766e	-0.14400646
170	0xbdaac43a	-0.083382085
171	0x3d8c564d	0.06852398
172	0x3ce9e629	0.028552132
173	0x3cf28f14	0.02960924
174	0x3e6bc362	0.23023751
175	0x3e5f7c90	0.2182486
176	0x3d7681de	0.060182445
177	0xbb063aa6	-0.0020481735
178	0xbe5b12b0	-0.21393847
179	0x3e17a899	0.14810409
180	0xbddf87ee	-0.109145984
181	0xbd7261c1	-0.059175257
182	0xbe4251ba	-0.18976489
183	0xbd2879be	-0.041131727
184	0xbe3b1e80	-0.18273354
185	0x3e6c90fa	0.23102179
186	0xbdfe4cf4	-0.124170214
187	0xbe060b2d	-0.130902
188	0xbdba7b87	-0.09105592
189	0xbe449bb9	-0.19200028
190	0x3db022fc	0.08600423
191	0xbd93b570	-0.07212341
192	0xbe0b2d02	-0.13591388
193	0xbcfc84f2	-0.030825112
194	0x3e5cbcfb	0.21556465
195	0xbe89ced1	-0.269156
196	0x3d1d02c8	0.03833273
197	0x3e1ab895	0.15109475
198	0x3ea2f564	0.31827843
199	0xbe77f886	-0.24215898
200	0x3de496fa	0.11161609
201	0xbe34255e	-0.1759238
202	0x3e3d1006	0.18463144
203	0xbdfc1d9c	-0.12310335
204	0x3cf67291	0.030083926
205	0x3d70a2bf	0.058748957
206	0x3ceac25e	0.028657135
207	0x3d2af13d	0.04173397
208	0xbd8fd382	-0.07022764
209	0x3e3b450a	0.18288055
210	0x3d38acca	0.04508666
211	0xbac8dfec	-0.0015325523
212	0xbe79d45b	-0.24397413
213	0x3e194218	0.14966619
214	0x3e150590	0.14552903
215	0x3e2cb49a	0.16865769
216	0x3e178aba	0.14799014
217	0xbe11ee5b	-0.14251082
218	0xbdfb9f1e	-0.122862086
219	0x3e447a0d	0.19187184
220	0xbe017bb1	-0.12644841
221	0x3ea1b20d	0.31581154
222	0xbe26603d	-0.1624765
223	0xbd6e3297	-0.058153715
224	0x3cfe1be1	0.031019153
225	0xbda98d51	-0.08278907
226	0xbd8bff48	-0.068358004
227	0x3db40f37	0.087919645
228	0x3e88027f	0.26564404
229	0x3e8549e7	0.26032946
230	0xbdfa8446	-0.122322604
231	0xbe400615	-0.1875232
232	0x3e6ca040	0.23108006
233	0x3b9fe59f	0.004879668
234	0xbd9b2bef	-0.07576739
235	0x3d305f57	0.043059673
236	0xbe508ae8	-0.20365489
237	0x3e3be3ca	0.18348613
238	0x3e4736dd	0.19454522
239	0xbe8447d0	-0.2583604
240	0xbe90af27	-0.2825863
241	0x3c047b73	0.008086073
242	0x3dc7f7c2	0.09764053
243	0xbd14b522	-0.036305554
244	0xbddca4af	-0.107735984
245	0x3d55c22a	0.052187122
246	0xbe910d0c	-0.28330266
247	0xbe1543dc	-0.14576668
248	0xbe577bfb	-0.21043389
249	0x3e35a7a9	0.17739739
250	0x3e37f070	0.17962813
251	0xbdcc9a26	-0.09990339
252	0xbd4fbb74	-0.05071588
253	0x3e1bf469	0.15229954
254	0x3d220848	0.03955868
255	0xbe28cf02	-0.16485217

mean.fc0.bias f4 [128]
0	0x3d136f91	0.03599507
1	0x3e00ee01	0.12590791
2	0xbcf956f2	-0.030436967
3	0x3e762784	0.24038512
4	0xbe53b576	-0.2067469
5	0xbe54f9b3	-0.20798378
6	0x3b964d90	0.004586883
7	0x3dbe925d	0.0930526
8	0x3d7c6a26	0.06162467
9	0xbe2e1154	-0.16998798
10	0xbc98b83c	-0.018642537
11	0xbcab7fae	-0.020934906
12	0xbe4405d9	-0.19142856
13	0x3d50aafa	0.050944306
14	0x3dccdae4	0.100026876
15	0xbdd22db8	-0.102626264
16	0xbe4571f1	-0.19281746
17	0xbde397ca	-0.11112936
18	0xbe420fc9	-0.18951334
19	0xbe88da9a	-0.2672928
20	0x3e0d2f15	0.13787492
21	0x3e03f964	0.12888104
22	0x3e424d65	0.18974836
23	0xbc875745	-0.016521106
24	0xbcddcbc8	-0.02707471
25	0xbe1cfdb5	-0.15331157
26	0x3d70fa74	0.0588326
27	0xbe52b2cb	-0.20576017
28	0x3e275d47	0.16344176
29	0xbe446e2c	-0.19182652
30	0xbe88d89c	-0.2672776
31	0xbe02d6e0	-0.12777281
32	0x3e8a25ab	0.26981863
33	0x3e556020	0.2083745
34	0x3ca3146b	0.019907197
35	0x3a31818c	0.0006771318
36	0x3e0469d3	0.12930994
37	0x3e11f29e	0.14252707
38	0x3de039e7	0.10948544
39	0xbe68a507	-0.22719203
40	0x3d9e5265	0.07730559
41	0x3e235f45	0.15954311
42	0xbe309434	-0.17244035
43	0x3e8dbd8d	0.27683678
44	0xbdd54cbc	-0.104150265
45	0xbde0dffe	-0.10980223
46	0xbc90a36f	-0.017656056
47	0x3adbe4ab	0.0016776522
48	0x3d7c2cf5	0.061566312
49	0xbdd55549	-0.104166575
50	0x3cbd4143	0.023102408
51	0x3c9818b4	0.018566467
52	0x3d4c1a7a	0.049829938
53	0xbe4f84fd	-0.20265575
54	0x3e8a6932	0.27033383
55	0xbe4150df	-0.18878506
56	0xbdae314f	-0.085054986
57	0x3e917a44	0.28413594
58	0xbe1380cf	-0.14404605
59	0x3e82e910	0.25568438
60	0x3e10f004	0.14154059
61	0xbe2c94e7	-0.16853677
62	0xbe18470f	-0.14870857
63	0xbd2d362c	-0.04228799
64	0x3e13a7fb	0.14419548
65	0x3e8ea4dd	0.27860156
66	0xbd50373a	-0.05083392
67	0xbe0c9b95	-0.13731225
68	0xbd3572b9	-0.04429886
69	0xbe3caa0b	-0.18424241
70	0x3eb150f5	0.34632078
71	0xbcec0305	-0.028810034
72	0xbe54ab1c	-0.20768398
73	0xbe5b8a16	-0.21439394
74	0x3dbed8ed	0.09318719
75	0x3da60afc	0.08107564
76	0x3e1d0c46	0.15336713
77	0xbd66fbd3	-0.056392502
78	0x3c89e18a	0.016831178
79	0x3e0c7c5f	0.13719319
80	0xbd7568c9	-0.059914384
81	0xbd65688d	-0.05600791
82	0x3d8b5139	0.06802601
83	0xbe468d39	-0.1938981
84	0xbdefb896	-0.11705129
85	0xbd85df2e	-0.06536709
86	0xbdd92501	-0.10602761
87	0x3dd198aa	0.102341965
88	0x3d1ccd05	0.03828146
89	0x3e0e2ec7	0.13885032
90	0x3d208d3a	0.039197184
91	0xbd265479	-0.040607903
92	0xbe1be3f9	-0.15223683
93	0xbe3aac1f	-0.18229721
94	0xbd719caa	-0.058987297
95	0xbe4a4962	-0.19754556
96	0xbcbff949	-0.023434298
97	0x3e35a2f6	0.17737946
98	0x3e2bdd1d	0.16783567
99	0xbdd407a2	-0.10353018
100	0xbdf0b310	-0.117529035
101	0x3e9517e3	0.29119787
102	0x3c701686	0.0146538075
103	0xbe5a4f2b	-0.21319263
104	0xbc96bb68	-0.01839991
105	0x3d23ac5b	0.039959293
106	0xbd819d75	-0.06328861
107	0x3be996b7	0.0071285623
108	0xbe0d8ff5	-0.13824446
109	0x3db94c99	0.09047813
110	0xbd1f4161	-0.03888071
111	0x3d25d2af	0.040484127
112	0x3e87863f	0.2646961
113	0xbdd974cc	-0.1061798
114	0xbd783e9d	-0.060606588
115	0x3d1827b6	0.037147246
116	0x3d70438b	0.058658164
117	0x3d869f3d	0.06573341
118	0xbdb7d85c	-0.08976814
119	0x3e0883a9	0.13331474
120	0xbd376b9b	-0.044780355
121	0x3e060f4f	0.13091777
122	0x3e506cfc	0.20354074
123	0xbe651bd9	-0.22373904
124	0x3dc97322	0.09836413
125	0xbe0d2988	-0.13785374
126	0x3e99fb8b	0.30074725
127	0xbe80e854	-0.25177252

mean.fc1.weight f4 [6, 128]
0	0x3c5b7733	0.0133951185
1	0x3d842900	0.06453133
2	0x3e103381	0.14082147
3	0x3d3cb130	0.046067417
4	0x3ccb31e5	0.024804065
5	0xbd2b3e52	-0.04180748
6	0xbca1fbac	-0.019773327
7	0x3da5da28	0.08098251
8	0xbd4c734e	-0.04991465
9	0x3afbbfb9	0.0019206918
10	0x3dab501c	0.08364889
11	0x3dba2e0b	0.09090813
12	0xbd66e92a	-0.056374706
13	0x3dc488d1	0.09596408
14	0x3d0b4195	0.03399809
15	0x3df2d67d	0.11857317
16	0x3cf4eea9	0.029898958
17	0x3dd952af	0.10611474
18	0x3cca7b99	0.02471714
19	0x3df6dda6	0.12053995
20	0x3ba3883d	0.004990606
21	0x3c4bf8fd	0.0124495
22	0x3d5fcb62	0.05463732
23	0x3d0db3b7	0.034595218
24	0x3d492d78	0.049115628
25	0x3de9b7b6	0.11411993
26	0xbcc026e1	-0.023456039
27	0xbd1e6dec	-0.03867905
28	0x3d8d63d8	0.06903809
29	0x3d0748a8	0.033028275
30	0x3c6b062a	0.014344731
31	0x3deeafb6	0.11654608
32	0x3db87067	0.09005814
33	0x3c38f474	0.011288751
34	0x3ce30f77	0.027717335
35	0x3d1652f2	0.036700197
36	0xbd2f104a	-0.042740144
37	0x3d51383c	0.05107902
38	0xbc286aad	-0.01027934
39	0x3d0df312	0.034655638
40	0x3e02a148	0.12756836
41	0xbd462b0b	-0.048380893
42	0x3d2d27f2	0.042274423
43	0x3dd7eda1	0.10543371
44	0x3e05df0b	0.13073365
45	0x3c8463cc	0.016160868
46	0x3d59819a	0.053102113
47	0xbc040025	-0.008056675
48	0x3d961c20	0.07329583
49	0x3e0c08d4	0.13675243
50	0x3db437ea	0.08799727
51	0x3cf95ff8	0.03044127
52	0x3db2ce79	0.08730788
53	0x3c05f960	0.008177131
54	0x3b96188d	0.0045805634
55	0x3ce18554	0.027529396
56	0xbc04be03	-0.008101943
57	0x3de5a4d7	0.11213081
58	0x3dba3ee1	0.090940244
59	0x3c04494f	0.008074119
60	0x3ca124e9	0.01967092
61	0xbcde10ac	-0.02710756
62	0x3d482129	0.04885975
63	0x3dc67fd5	0.09692351
64	0x3ded322c	0.11581835
65	0xbd85355c	-0.06504318
66	0xbc9e5b59	-0.019330667
67	0x3d12e95a	0.035867073
68	0x3e0c825a	0.137216
69	0x3d14408b	0.036194365
70	0x3dda746c	0.10666737
71	0x3dc08fa8	0.094024
72	0x3d74cd9c	0.059766397
73	0x3e049de3	0.12950854
74	0x3df50450	0.11963713
75	0xbd1a65e7	-0.037694838
76	0xbcdfb054	-0.02730576
77	0xbd0797c0	-0.033103704
78	0x3cbe1247	0.023202075
79	0x3d90cdaa	0.07070477
80	0x3dabf7e1	0.083968885
81	0xbcf17223	-0.02947337
82	0x3dc08c29	0.094017334
83	0xbcde5187	-0.027138485
84	0x3db292f0	0.08719432
85	0x3d96eaec	0.073690265
86	0x3dc3bd32	0.095575705
87	0xbd55d033	-0.052200507
88	0xbc43229b	-0.011910106
89	0x3cfea0b6	0.031082492
90	0x3dcdf589	0.10056598
91	0x3bdb7e25	0.006698387
92	0x3d377c15	0.04479607
93	0x3a3eb030	0.0007274179
94	0xbd33a296	-0.043856226
95	0x3cc6deda	0.024276186
96	0xbcaf0cf0	-0.021368474
97	0x3d9fc53f	0.078012936
98	0x3e06876e	0.131376
99	0x3dd41831	0.10356177
100	0x3dceae48	0.10091835
101	0x3caa6f52	0.020805035
102	0xbd4528a1	-0.04813445
103	0x3d45b705	0.048270244
104	0x3d8e783d	0.069565274
105	0xbd6001e2	-0.054689296
106	0x3dd2aaef	0.10286509
107	0x3daf9169	0.08572657
108	0x3c3a0478	0.0113536045
109	0x3dbc8d88	0.092066824
110	0x3e13117d	0.1436214
111	0x3d508045	0.050903577
112	0x3d48362b	0.048879784
113	0x3d54cc69	0.051952753
114	0xbb0f8092	-0.0021896702
115	0x3de71bea	0.11284621
116	0x3d7b7c01	0.061397556
117	0x3b982994	0.0046436284
118	0xbd048e2f	-0.03236216
119	0x3dfb29c6	0.12263827
120	0x3a0666f3	0.0005127035
121	0xbcc733b9	-0.024316655
122	0x3e0fe63b	0.1405267
123	0xbcee1f85	-0.029067764
124	0x3d79a338	0.060946673
125	0x3df3c6b6	0.119031355
126	0xbc46e24a	-0.012138912
127	0x3caa79a0	0.020809948
128	0x3dedc4ee	0.11609827
129	0x3d0140e7	0.031556036
130	0x3db08bf4	0.08620444
131	0xbaf142f2	-0.0018406792
132	0xbc9b62e6	-0.018968057
133	0xbba7c9df	-0.0051205005
134	0x3c108f82	0.008823277
135	0x3d48154b	0.04884843
136	0xbc280def	-0.010257228
137	0x3de3ed83	0.11129286
138	0xbc458839	-0.012056404
139	0x3dbda56f	0.092600696
140	0x3cb9cf01	0.022681715
141	0x3e04c96d	0.12967463
142	0x3da7a0a1	0.081849344
143	0x3c7b79d5	0.015348871
144	0x3d36835f	0.04455888
145	0x3c262a36	0.0101419
146	0x3d4d1a74	0.050074056
147	0xbb2fdcd0	-0.0026834495
148	0xbcf6f144	-0.030144341
149	0x3d82f4e8	0.063943684
150	0x3d5449e2	0.051828273
151	0x3e2753e5	0.16340597
152	0x3dd3a611	0.10334409
153	0x3d8188d6	0.063249275
154	0x3c18f1c9	0.00933499
155	0xba4c6bc5	-0.00077980413
156	0x3d6ece09	0.05830196
157	0xbcc75357	-0.024331732
158	0x3d3e84bd	0.046513308
159	0x3d8c9c8e	0.06865798
160	0x3ddcc2a8	0.10779315
161	0x3d5f578f	0.05452686
162	0x3da5a9cc	0.08089027
163	0x3c0cc5c6	0.008592075
164	0x3d814fb5	0.06314031
165	0x3e118ddb	0.1421427
166	0xbd42e646	-0.047582887
167	0xbdd02667	-0.10163575
168	0x3de1dc92	0.110283986
169	0x3ccb6f4a	0.02483334
170	0x3d47010b	0.04858498
171	0xbc52ecac	-0.01287381
172	0x3cf34a44	0.029698499
173	0xbc98693d	-0.018604869
174	0x3c42a207	0.011879451
175	0xbc26bb4b	-0.01017649
176	0x3bac5a8f	0.005259819
177	0x3dec8a54	0.115498215
178	0x3cd9f1e4	0.0266046
179	0x3dd40f3c	0.10354468
180	0xbc2a888c	-0.010408532
181	0x3db51b02	0.08843042
182	0x3cbc7e25	0.02300937
183	0xbd9bd6c0	-0.0760932
184	0x3d631c75	0.05544706
185	0x3e329237	0.17438589
186	0x3ba1f7c6	0.004942867
187	0x3e006b86	0.12541017
188	0x3cda701f	0.026664792
189	0xbc3c3dd7	-0.011489353
190	0x3da52a13	0.08064666
191	0x3e13cd5c	0.14433807
192	0x3e0312f2	0.12800196
193	0x3de04e62	0.1095245
194	0xbca9b2f9	-0.020715224
195	0x3c3eed77	0.011653296
196	0x3d8af39d	0.06784747
197	0x3d1700eb	0.03686611
198	0x3e1d9254	0.15387851
199	0x3d670249	0.056398664
200	0xbd10ea91	-0.03537995
201	0x3d1e9339	0.03871462
202	0xbc4aa72e	-0.01236896
203	0x3dc17118	0.09445399
204	0xbbdc1569	-0.0067164195
205	0x3cd602a2	0.026124302
206	0x3d6d706d	0.057968546
207	0x3da3aef1	0.07992352
208	0xbc697fd7	-0.014251671
209	0x3e11f192	0.14252308
210	0xbd0baa30	-0.03409785
211	0x3c164352	0.009171324
212	0x3db8d429	0.09024841
213	0x3cd54ec5	0.026038537
214	0x3dd36667	0.10322266
215	0x3d9f1c38	0.07769054
216	0xbcabf09f	-0.02098876
217	0xbc2a53a7	-0.010395921
218	0x3af375c8	0.001857453
219	0x3cefaa50	0.029256016
220	0x3da85e4e	0.08221112
221	0x3a38e818	0.00070536276
222	0xbc2bb3d1	-0.010479883
223	0xbcc57fd8	-0.024108812
224	0x3cac1633	0.02100668
225	0x3da817c5	0.08207659
226	0x3da3a9cf	0.07991373
227	0x3c0ad61a	0.008473897
228	0x3d4b6474	0.049656346
229	0x3de1ff97	0.11035078
230	0x3e0768fd	0.13223644
231	0xbd3f6e60	-0.04673612
232	0x3c53dab3	0.01293056
233	0x3d8a2736	0.0674576
234	0xbb2b43dc	-0.0026132977
235	0x3cb894fd	0.02253198
236	0x3e07996f	0.13242124
237	0x3c3d2cf4	0.011546362
238	0x3d8540a7	0.06506472
239	0xbca96ee2	-0.020682756
240	0x3e0cae44	0.13738352
241	0xbd3c2b63	-0.045939814
242	0x3cc48951	0.023991259
243	0x3e2d60a7	0.16931401
244	0x3d7f78bd	0.062371004
245	0x3c095362	0.008381696
246	0x3dcf5a2d	0.101246215
247	0xba064d53	-0.00051232165
248	0x3d4d563d	0.05013107
249	0x3e09cc75	0.134569
250	0x3d5b0c4d	0.053478528
251	0x3d9df1a8	0.07712108
252	0x3c6fc206	0.014633661
253	0x3ca55233	0.020180797
254	0x3dc9affb	0.09848019
255	0x3d5f7b5b	0.054561

mean.fc1.bias f4 [6]
0	0x3dfa5233	0.122227095
1	0x3cdff69c	0.027339272
2	0xbb7704e5	-0.0037692126
3	0x3d3f0a9d	0.04664098
4	0x3d5f0f0b	0.054457705
5	0x3e08368c	0.13302058
