cs294-homework/hw2/data/rtg_na_Walker2d-v2_11-04-2019_10-29-32/1/vars_policy.pkl (torch_old, 13326 bytes, 5 tensors)

std f4 [1, 6]
0.9961086 1.0546592 0.9862526 0.9381339 0.957438 1.0599773
00000000: f900 7f3f 13ff 863f 0d7b 7c3f 8b29 703f
00000010: a81a 753f 56ad 873f

mean.fc0.weight f4 [128, 17]
0.18337275 -0.14156266 -0.09750042 0.038759977 -0.19440341 0.10840809 -0.029460877 0.14642137
-0.0032897147 -0.13619749 0.052366655 0.0100360885 0.061123956 -0.13865113 -0.012412725 -0.08525999
0.072601 -0.11391679 0.15544973 0.037496645 -0.067068055 -0.23780651 0.019110799 -0.112833075
-0.12086123 -0.005394256 0.23554218 0.11917278 -0.23158745 0.22301437 0.0821893 0.23518771
0.18087631 -0.19222033 -0.22177443 -0.09994163 0.22302334 -0.06521567 0.15035905 -0.10597016
0.1847451 -0.018456316 0.22101821 -0.09687916 -0.104442246 0.12834875 -0.12179587 -0.017060272
-0.071305476 0.06514229 -0.29269576 -0.20252413 0.14941122 -0.022114245 0.29830667 0.10505728
0.046728283 -0.12468497 0.06429458 0.052491046 -0.06791455 0.10540596 0.1288617 0.23567784
-0.08568862 -0.071898565 -0.00077643944 -0.00537918 -0.18768609 -0.19252124 0.09072759 -0.020340307
0.15176772 0.022680746 0.12501475 0.09994828 0.09537967 0.13353299 -0.21604028 0.07093392
-0.11300827 -0.24014053 -0.0058110817 -0.01992642 0.11447432 -0.20079362 -0.14946905 0.23025985
0.024611024 0.06517816 0.13581726 -0.22663757 0.0028244876 0.12619087 -0.14021975 -0.054919146
0.12953806 0.058699664 -0.044257525 -0.016618267 0.16953631 0.005463246 0.073819906 0.028937139
-0.20650132 -0.18543772 0.16438927 0.0074912435 0.16512331 -0.012948713 -0.014044884 0.26898903
0.1912113 -0.17521769 0.02738881 0.20720829 0.16148925 0.14748636 -0.1590294 -0.21075249
-0.19157186 -0.03505583 0.26629275 -0.20899384 0.113411896 -0.17038596 -0.25281453 -0.060095865
0.1305069 0.21506953 -0.18730354 0.087063044 0.1790127 0.14069065 0.17880553 0.15207909
0.15163957 0.014392224 -0.22598806 -0.22868256 -0.14565992 -0.089288674 -0.17189363 0.014695235
-0.017208615 -0.05562882 0.014931391 0.032509618 0.094809406 0.16589262 -0.13643856 0.1856795
-0.057992525 -0.029822992 -0.18902858 -0.14371695 -0.11875055 -0.13906637 0.17521733 -0.043133322
-0.1645487 0.15192717 0.13167275 0.26836073 0.009422338 -0.035948474 -0.024062641 0.08046615
-0.24373683 -0.08401844 -0.09329236 0.052281514 0.03967928 0.029959537 0.2847177 0.21212536
0.13666773 0.03015688 -0.18689771 0.19033313 -0.051974468 -0.04354053 -0.182268 -0.13724825
-0.13005006 0.2048755 -0.18233049 -0.17355579 -0.02806569 -0.16711435 0.029890966 -0.04318191
-0.17699935 0.017344007 0.21137077 -0.21192062 0.009951719 0.10244851 0.2290753 -0.2541211
-0.036973745 -0.24761784 0.26178452 -0.12453838 0.0846924 0.016558474 0.009006073 0.046443634
-0.0013138423 0.16362883 0.034136556 0.06524004 -0.20267782 0.16696577 0.24116534 0.23386227
0.16977337 -0.047022924 -0.047960646 0.16833581 -0.12073316 0.24512991 -0.16944575 -0.08502481
0.09025983 -0.1552058 -0.050970852 0.13587336 0.15504402 0.2194385 -0.11090906 -0.22891214
0.24775676 -0.077124596 -0.070593715 0.033660304 -0.21333452 0.20679179 0.17089458 -0.2122891
-0.21396357 -0.03226583 0.10686267 -0.029982198 -0.13337003 0.038421586 -0.24747889 -0.22759826
-0.2097728 0.15918045 0.17090696 -0.116021864 -0.051849768 0.14626093 0.03349262 -0.1625604
00000000: 11c6 3b3e cdf5 10be 4dae c7bd c8c2 1e3d
00000010: b011 47be 1005 de3d f057 f1bc 7cef 153e
00000020: 4198 57bb 5b77 0bbe 6b7e 563d 686e 243c
00000030: 1d5d 7a3d 90fa 0dbe be5e 4bbc ca9c aebd
00000040: d5af 943d 354d e9bd 372e 1f3e 1596 193d
00000050: fa5a 89bd 8d83 73be 408e 9c3c 0715 e7bd
00000060: 1886 f7bd 4dc2 b0bb f831 713e dc10 f43d
00000070: 4325 6dbe e15d 643e dd52 a83d 0cd5 703e
00000080: a437 393e 68d5 44be d618 63be 33ae ccbd
00000090: 3b60 643e cb8f 85bd b9f7 193e e206 d9bd
000000a0: d22d 3d3e b331 97bc 9952 623e 9568 c6bd
000000b0: d1e5 d5bd db6d 033e 1d70 f9bd fcc1 8bbc
000000c0: 9b08 92bd 5269 853d 38dc 95be 7c62 4fbe
000000d0: 41ff 183e ef28 b5bc a7bb 983e 4528 d73d
000000e0: 2866 3f3d d55a ffbd e0ac 833d da00 573d
000000f0: c916 8bbd 14df d73d 52f4 033e 8855 713e
00000100: 847d afbd 8e3f 93bd f889 4bba d543 b0bb
00000110: c830 40be 4a24 45be 63cf b93d b7a0 a6bc
00000120: ff68 1b3e f9cc b93c de03 003e afb1 cc3d
00000130: 6b56 c33d dfbc 083e aa39 5dbe ce45 913d
00000140: e170 e7bd 66e7 75be e36a bebb bb3c a3bc
00000150: 8371 ea3d d89c 4dbe 6a0e 19be 3dc9 6b3e
00000160: 0f9d c93c 217c 853d ae13 0b3e ae13 68be
00000170: 0a1b 393b 2e38 013e c495 0fbe e6f2 60bd
00000180: a0a5 043e 0f6f 703d 6147 35bd 0823 88bc
00000190: ed9a 2d3e 0705 b33b e42e 973d 940d ed3c
000001a0: 1575 53be 63e3 3dbe a955 283e 1b79 f53b
000001b0: 1616 293e d726 54bc 831c 66bc eeb8 893e
000001c0: e5cc 433e 446c 33be 7f5e e03c 692e 543e
000001d0: 705d 253e aa06 173e 9ad8 22be 80cf 57be
000001e0: 6a2b 44be b496 0fbd 8657 883e 7b02 56be
000001f0: 7f44 e83d a879 2ebe e870 81be 1527 76bd
00000200: 9aa3 053e 303b 5c3e 80cc 3fbe 1c4e b23d
00000210: 1b4f 373e 3611 103e cc18 373e 9fba 1b3e
00000220: 6747 1b3e 5dcd 6b3c 6a69 67be c32b 6abe
00000230: e027 15be fbdc b6bd e204 30be 48c4 703c
00000240: 15f9 8cbc 0cdb 63bd cba2 743c ce28 053d
00000250: 6f2b c23d c1df 293e 8db6 0bbe c422 3e3e
00000260: 9289 6dbd 594f f4bc b590 41be 892a 13be
00000270: 7d33 f3bd 6a67 0ebe 2c6c 333e 91ac 30bd
00000280: 747f 28be cc92 1b3e 39d5 063e 9466 893e
00000290: 2660 1a3c b53e 13bd 041f c5bc 70cb a43d
000002a0: 2696 79be dc11 acbd 1110 bfbd 2425 563d
000002b0: be86 223d b46d f53c 85c6 913e 6437 593e
000002c0: a0f2 0b3e 900b f73c 1d62 3fbe b0e6 423e
000002d0: 2ee3 54bd 8e57 32bd 76a4 3abe ce8a 0cbe
000002e0: d82b 05be e2ca 513e d8b4 3abe 9cb8 31be
000002f0: 05ea e5bc 0620 2bbe e6dd f43c 84df 30bd
00000300: 513f 35be 0515 8e3c 9471 583e b801 59be
00000310: 890c 233c 86d0 d13d b792 6a3e 291c 82be
00000320: c871 17bd 888f 7dbe 9f08 863e fa0d ffbd
00000330: 3673 ad3d a3a5 873c 358e 133c ae3b 3e3d
00000340: 3b35 acba 518e 273e c6d2 0b3d 929c 853d
00000350: c68a 4fbe 13f9 2a3e 0cf4 763e 9779 6f3e
00000360: 12d9 2d3e 1c9b 40bd 6272 44bd 3960 2c3e
00000370: f242 f7bd 5603 7b3e 3083 2dbe 7d21 aebd
00000380: 25da b83d 45ee 1ebe d0c6 50bd 6322 0b3e
00000390: dcc3 1e3e 7cb4 603e 4a24 e3bd f267 6abe
000003a0: f3b3 7d3e 80f3 9dbd 7093 90bd 63df 093d
000003b0: 5d74 5abe 3ac1 533e fdfe 2e3e 5062 59be
000003c0: 4419 5bbe 2d29 04bd d1da da3d 3a9d f5bc
000003d0: 2792 08be f45f 1d3d 1b6b 7dbe 850f 69be
000003e0: aece 56be 3300 233e 3c02 2f3e df9c edbd
000003f0: 6c60 54bd 6dc5 153e 8f2f 093d 3c76 26be

mean.fc0.bias f4 [128]
0.033457566 -0.0020718167 -0.08516682 0.0935192 -0.16654433 -0.18746236 0.010846615 0.11328271
-0.005773657 -0.21280375 -0.02765064 -0.058186248 -0.1416106 -0.018701136 0.08116049 -0.105490215
-0.12704602 -0.13454604 -0.23817222 -0.2175498 0.104770176 0.18482889 0.1425299 -0.008819973
-0.091138095 -0.12767403 0.101439275 -0.17305715 0.15461218 -0.09974384 -0.28961936 -0.15743601
0.25198707 0.22786476 -0.012765499 0.043143597 0.17343481 0.16264425 0.12136082 -0.19256228
0.074741974 0.1662909 -0.16034894 0.27705008 -0.09281397 -0.118023716 -0.063353345 -0.0024545917
0.080581926 -0.09271189 0.06459839 0.048034042 0.0017345196 -0.27505594 0.23791766 -0.14871107
-0.14979002 0.3021306 -0.13107894 0.19568658 0.2147275 -0.08869946 -0.100119926 -0.08240498
0.062116604 0.26243693 -0.0809035 -0.09581941 -0.03259303 -0.20879725 0.26645914 -0.069115974
-0.14561182 -0.20498492 0.13844012 0.1345274 0.11939318 -0.04427706 -0.041727696 0.19423774
-0.039077003 -0.014172048 0.07142431 -0.19424044 -0.19014572 -0.0511772 -0.24177523 0.054634888
-0.0012971708 0.16671164 0.086590916 -0.035023313 -0.12554443 -0.119911715 -0.074489355 -0.24503851
0.0051704263 0.20021598 0.20622158 -0.1307648 -0.10195621 0.22231954 -0.06278763 -0.19591339
0.0434518 -0.05283718 -0.118535936 -0.017811365 -0.1404985 0.116743006 -0.11091524 0.0834479
0.28164276 -0.14066084 -0.08057787 0.028874192 0.1156376 0.09237792 -0.012523366 0.14031567
-0.047934514 0.10104423 0.13906921 -0.29549387 0.08711085 -0.12244017 0.24343294 -0.27797723
00000000: cd0a 093d 51c7 07bb f16b aebd ff86 bf3d
00000010: 998a 2abe 22f6 3fbe 00b6 313c c400 e83d
00000020: f230 bdbb 3ae9 59be 9883 e2bc b454 6ebd
00000030: 5e02 11be 2033 99bc 7937 a63d 410b d8bd
00000040: 5a18 02be 70c6 09be 6be3 73be 60c5 5ebe
00000050: bf91 d63d c943 3d3e 5cf3 113e a681 10bc
00000060: 9ca6 babd fbbc 02be 65bf cf3d e535 31be
00000070: a852 1e3e 8046 ccbd fd48 94be e836 21be
00000080: 7304 813e 6155 693e 6226 51bc 57b7 303d
00000090: e598 313e 378c 263e 068c f83d 0c2f 45be
000000a0: 5212 993d 2948 2a3e 8332 24be 82d9 8d3e
000000b0: 4015 bebd 6bb6 f1bd 66bf 81bd 37dd 20bb
000000c0: 2308 a53d bbdf bdbd 294c 843d 58bf 443d
000000d0: d258 e33a 22d4 8cbe b0a0 733e b747 18be
000000e0: 8e62 19be ddb0 9a3e 8f39 06be 1062 483e
000000f0: 87e1 5b3e 10a8 b5bd ad0b cdbd f1c3 a8bd
00000100: fb6d 7e3d 225e 863e bcb0 a5bd f83c c4bd
00000110: 4580 05bd f2ce 55be 556d 883e ad8c 8dbd
00000120: 441b 15be 91e7 51be 3fc3 0d3e 8dc1 093e
00000130: 6984 f43d dd5b 35bd a9ea 2abd 42e6 463e
00000140: 350f 20bd e131 68bc e946 923d f7e6 46be
00000150: 8fb5 42be 2f9f 51bd ed93 77be d5c8 5f3d
00000160: d405 aaba 75b6 2a3e 9456 b13d 9b74 0fbd
00000170: b88e 00be 4694 f5bd e08d 98bd 60eb 7abe
00000180: ae6c a93b 6b05 4d3e c02b 533e 35e7 05be
00000190: 6bce d0bd bca7 633e cd96 80bd 859d 48be
000001a0: 84fa 313d cd6b 58bd f8c2 f2bd 24e9 91bc
000001b0: d7de 0fbe f516 ef3d 8827 e3bd bce6 aa3d
000001c0: 7b33 903e 6509 10be 0306 a5bd 9289 ec3c
000001d0: 68d3 ec3d a330 bd3d ce2e 4dbc e9ae 0f3e
000001e0: fb56 44bd 47f0 ce3d 2968 0e3e f94a 97be
000001f0: 2c67 b23d e9c1 fabd 7c46 793e 0853 8ebe

mean.fc1.weight f4 [6, 128]
0.018443944 0.07513018 0.113568984 0.04434313 0.010072846 -0.040561996 -0.009292937 0.10982558
-0.024978662 -0.015322064 0.075285904 0.09298792 -0.04080522 0.077280074 0.044212505 0.095550776
0.050083876 0.08116726 0.060278133 0.104859814 0.054244243 0.009089744 0.03709102 0.019758606
0.0514349 0.09258871 -0.027078312 -0.05187176 0.047266353 0.018115351 -0.007789466 0.10275763
0.06470111 -0.0034633589 0.079456724 0.018838584 -0.008165518 0.07018642 -0.017932124 0.03491687
0.10877133 -0.02017899 0.062736295 0.11248058 0.11486004 -0.0031940946 0.07580167 -0.04547584
0.06977877 0.13840571 0.12308703 0.020957874 0.07531243 0.03624877 0.022795025 0.03196316
-0.034018714 0.10417642 0.07504538 0.00803689 0.013145407 -0.031685352 0.0320307 0.09270585
0.10865358 -0.021268869 -0.024887878 0.02687295 0.122981094 0.054911256 0.0885884 0.066376366
0.0699612 0.11643689 0.12160168 0.013171391 -0.0032939834 -0.049518313 0.02241484 0.06366014
0.11521047 -0.023130126 0.08647881 -0.03427695 0.06779414 0.05144381 0.07808446 -0.016625287
-0.010842183 0.039829545 0.09457355 0.02158917 0.09386552 0.013934952 -0.061199836 0.06679294
0.035669647 0.07295741 0.12472606 0.0782789 0.061017647 -0.0045890436 -0.040312104 0.034792736
0.0599027 -0.0033012081 0.100130305 0.055014998 -0.018855292 0.08600975 0.13445054 0.044274352
0.036402687 0.06874363 -0.016001558 0.11288088 0.09518545 -0.0061851577 -0.043483246 0.12433959
-0.0052988227 -0.029113423 0.11320221 -0.010235102 0.08116686 0.09937791 0.018171908 0.0041644922
0.07662847 -0.038907994 0.115578994 -0.015198452 -0.020043585 0.033886693 -0.044161525 -0.020778662
-0.050973766 0.053374678 0.0016692514 0.11249134 0.0034137135 0.13579595 0.029410394 -0.009463769
0.106716365 0.016138177 0.052402385 -0.0052143075 0.012473918 0.077847324 -0.011423027 0.16917807
0.09019803 0.023515364 -0.03666208 -0.04487784 0.023817522 -0.012052721 0.040747333 0.008628
0.06646637 0.05145011 0.036408845 -0.042549167 0.0036575655 0.0971033 -0.028885156 -0.10811836
0.09814994 0.068934314 0.069068 0.013346988 -0.0071888715 -0.028631352 -0.054684833 -0.02038863
0.049723856 0.13703853 0.016084729 0.11317989 -0.014019931 0.02970326 0.05607867 -0.1022412
0.03451148 0.0946591 0.013706668 0.12851007 -0.018659089 -0.024705717 0.07036543 0.09794533
0.0994998 0.1239267 -0.0054994933 -0.008191956 0.07216549 -0.008193192 0.08207607 0.0385038
0.011044523 0.01810613 0.010680071 0.059346005 -0.03873957 0.036375415 0.09207877 0.12273819
0.0006607868 0.1323577 -0.075771585 -0.020016972 0.043166872 0.02303619 0.05395673 0.028146297
-0.056536905 -0.036482845 0.048080724 0.06405934 0.057496082 0.007468195 -0.06080735 -0.02849879
-0.0050938223 0.038622964 0.078558326 0.008071704 0.011933123 0.06586515 0.11374428 -0.117740035
0.009130394 0.028435726 -0.068034336 0.0046597626 0.10516032 0.008260413 0.1137263 -0.08178182
0.15795235 -0.071513765 0.07033607 0.07873443 0.11275685 -0.035642806 0.04854058 0.021567374
0.037939563 0.091859706 0.043666773 0.046293102 -0.01647973 -0.009575373 0.0170949 0.040329356
00000000: c117 973c dadd 993d db96 e83d 24a1 353d
00000010: 9408 253c 5624 26bd 6741 18bc 3cec e03d
00000020: 0da0 ccbc 6509 7bbc 7f2f 9a3d 7370 be3d
00000030: 6023 27bd 0445 9e3d 2c18 353d 20b0 c33d
00000040: c024 4d3d 053b a63d 34e6 763d bec0 d63d
00000050: 362f 5e3d 26ed 143c c1ec 173d cddc a13c
00000060: 67ad 523d 269f bd3d 56d3 ddbc 7c77 54bd
00000070: 5d9a 413d a566 943c c73e ffbb 9872 d23d
00000080: 0482 843d 85f9 62bb 35ba a23d 6053 9a3c
00000090: aac8 05bc e6bd 8f3d 64e6 92bc fe04 0f3d
000000a0: 81c3 de3d 694e a5bc e37b 803d 385c e63d
000000b0: be3b eb3d 0454 51bb e83d 9b3d e044 3abd
000000c0: 2ce8 8e3d 3aba 0d3e 0e15 fc3d d9af ab3c
000000d0: 673d 9a3d 9779 143d a2bc ba3c cdeb 023d
000000e0: 3557 0bbd 725a d53d 64b1 993d 29ad 033c
000000f0: d55f 573c 80c8 01bd a032 033d 91dc bd3d
00000100: c585 de3d 0d3c aebc aae1 cbbc a924 dc3c
00000110: 83dd fb3d a0ea 603d d66d b53d 55f0 873d
00000120: d147 8f3d 7776 ee3d 4d0a f93d d1cc 573c
00000130: dfdf 57bb b7d3 4abd 549f b73c 3f60 823d
00000140: 78f3 eb3d 647b bdbc cd1b b13d fd65 0cbd
00000150: a7d7 8a3d bfb6 523d bfea 9f3d c131 88bc
00000160: 69a3 31bc 4e24 233d c7af c13d c5db b03c
00000170: 913c c03d 6d4f 643c aeac 7abd bdca 883d
00000180: 561a 123d b26a 953d 6070 ff3d b050 a03d
00000190: a4ed 793d b05f 96bb 4e1e 25bd d482 0e3d
000001a0: 895c 753d 1559 58bb 1e11 cd3d 6857 613d
000001b0: 6a76 9abc e125 b03d 67ad 093e 0659 353d
000001c0: fc1a 153d 76c9 8c3d b315 83bc 172e e73d
000001d0: 97f0 c23d ddac cabb 7d1b 32bd c1a5 fe3d
000001e0: bfa1 adbb 467f eebc 8fd6 e73d 21b1 27bc
000001f0: d03a a63d a586 cb3d 41dd 943c 4b76 883b
00000200: 63ef 9c3d fd5d 1fbd aeb4 ec3d ee02 79bc
00000210: 7232 a4bc c6cc 0a3d b7e2 34bd 0338 aabc
00000220: dec9 50bd 689f 5a3d c8ca da3a dc61 e63d
00000230: 9cb8 5f3b 180e 0b3e 11ee f03c ed0d 1bbc
00000240: 1c8e da3d 3634 843c e2a3 563d c8dc aabb
00000250: 675f 4c3c 6b6e 9f3d a627 3bbc 043d 2d3e
00000260: bfb9 b83d 4ba3 c03c fa2a 16bd d3d1 37bd
00000270: f71c c33c c778 45bc ade6 263d 745c 0d3c
00000280: 851f 883d 5abd 523d 7121 153d 0948 2ebd
00000290: c4b3 6f3b 18de c63d 90a0 ecbc 296d ddbd
000002a0: d602 c93d 6f2d 8d3d 8673 8d3d 53ad 5a3c
000002b0: a090 ebbb 4c8c eabc 34fd 5fbd 0e06 a7bc
000002c0: 3eab 4b3d d453 0c3e 1fc4 833c dcca e73d
000002d0: dab3 65bc 4054 f33c bfb2 653d d663 d1bd
000002e0: e95b 0d3d a1dc c13d ef91 603c 2598 033e
000002f0: f2da 98bc a563 cabc c01b 903d 9097 c83d
00000300: 8dc6 cb3d 48cd fd3d 1835 b4bb 8e37 06bc
00000310: 80cb 933d bd3c 06bc 8017 a83d 29b6 1d3d
00000320: 16f4 343c 4f53 943c 77fb 2e3c cc14 733d
00000330: 62ad 1ebd 63fe 143d cb93 bc3d 295e fb3d
00000340: a738 2d3a c788 073e 222e 9bbd a2fa a3bc
00000350: bfcf 303d 64b6 bc3c bb01 5d3d 1093 e63c
00000360: 3e93 67bd 096f 15bd 4bf0 443d 8b31 833d
00000370: 0381 6b3d c3b7 f43b 2111 79bd 4b76 e9bc
00000380: 14ea a6bb 1d33 1e3d 30e3 a03d 2e3f 043c
00000390: 2583 433c 4fe4 863d c3f2 e83d b021 f1bd
000003a0: a697 153c 0af2 e83c 9655 8bbd ecb0 983b
000003b0: 4b5e d73d af56 073c 56e9 e83d 3a7d a7bd
000003c0: 43be 213e cf75 92bd 5c0c 903d 843f a13d
000003d0: 10ed e63d 31fe 11bd 7dd2 463d 10ae b03c
000003e0: 8466 1b3d f120 bc3d eedb 323d d69d 3d3d
000003f0: 8000 87bc 06e2 1cbc 9b0a 8c3c 6530 253d

mean.fc1.bias f4 [6]
0.11582685 -0.01802967 -0.028896293 0.06915106 0.038587175 0.11947527
00000000: a136 ed3d f5b2 93bc ebb7 ecbc 129f 8d3d
00000010: 960d 1e3d 73af f43d
