cs294-homework/hw3/data/ac_ac_100_1_Walker2d-v2_13-04-2019_12-16-20/1/vars_policy.pkl (torch_old, 13326 bytes, 5 tensors)

std f4 [1, 6]
000000 13 03 89 3f a0 52 66 3f 01 11 5d 3f a4 b3 55 3f
       1.0704063 0.89969826 0.8635407 0.83477235
000010 ae 1b 6c 3f b7 f1 79 3f
       0.92229736 0.9763445

mean.fc0.weight f4 [128, 17]
000000 de 76 81 3e 68 27 22 be 69 ce 02 be 1f ab 44 3e
       0.25286 -0.15835345 -0.12774052 0.19205903
000010 df c8 51 be 11 fa 61 3d 6d 0a c4 bd 6b de 28 3e
       -0.20486782 0.055170123 -0.09572301 0.16491096
000020 ee 77 77 bd 97 dd ad bd f1 ea 54 bd 40 f6 bb bd
       -0.06041711 -0.084895305 -0.05198187 -0.09177828
000030 e0 fd 4e 3d 91 bb 5a be 67 b4 0c be 90 d8 04 be
       0.050535083 -0.21360613 -0.13740693 -0.12973237
000040 64 a6 8f 3d 87 08 1f 3d c6 2c 51 3e 76 ee 72 3d
       0.07014158 0.03882649 0.20427236 0.059309445
000050 47 06 a8 3b f8 ec 8a bd d4 84 6c bd e3 e2 06 be
       0.0051277014 -0.067834795 -0.057743862 -0.13172488
000060 5b 15 c2 3b a8 64 aa bc 91 9e 9b 3d 00 e5 6f 3d
       0.005922956 -0.02079995 0.075986035 0.058568
000070 f7 57 9e be 69 f5 46 3e 3b 86 84 3d db f1 d9 3d
       -0.30926487 0.19429554 0.06470915 0.106418334
000080 d5 05 7a 3e df e4 7d be 2e b5 88 be 7a f4 b7 bd
       0.24416287 -0.24794339 -0.2670073 -0.08982177
000090 dd 95 61 3e 6f 92 80 bc 63 0b b6 3d a1 e8 b1 bd
       0.22029825 -0.015694825 0.088888906 -0.086869486
0000a0 1a 92 85 3e 88 a0 8b bd b9 83 66 3e f8 80 af 3c
       0.2608803 -0.06817728 0.22511186 0.021423802
0000b0 11 68 d1 bd 68 c6 b6 3d 38 8c b2 bd 22 3a dc 3c
       -0.10224927 0.08924562 -0.08718151 0.026883189
0000c0 73 03 b5 bd fb 26 a5 3c e2 93 6f be 98 54 34 be
       -0.088385485 0.020160189 -0.23396257 -0.17610395
0000d0 f2 41 f3 3d 10 53 ac bd fb 82 b4 3e ff c2 72 3e
       0.118778124 -0.084142804 0.3525618 0.23707198
0000e0 49 04 bf bd 53 12 4a be 9f 64 3c 3e 73 c5 8b 3d
       -0.09326989 -0.19733553 0.18397759 0.0682477
0000f0 82 2f 5c be 4e 4c ab 3d 7e 5e 5d 3d eb 73 85 3e
       -0.21502498 0.08364163 0.054045193 0.26065
000100 25 6a da bd 8a ca 28 be 0e 4b 87 3d 8b 2f e9 bc
       -0.10664777 -0.16483513 0.066061124 -0.028465053
000110 b6 bb 49 be 9d a2 24 be 6f 5f 28 3e 24 ec 9e bc
       -0.19700512 -0.16077657 0.16442655 -0.01939971
000120 50 c4 df 3d 2c d3 3f 3d fd af 02 3e a7 89 e2 3d
       0.109261155 0.04683225 0.12762447 0.11061411
000130 2f 80 d5 3d 24 ac a6 3d 53 69 59 be 3c c2 ae 3d
       0.1042484 0.08138302 -0.21231584 0.08533141
000140 52 68 04 be 66 86 d6 bd 90 8a 4e 3c 40 1d 17 bd
       -0.1293042 -0.10474853 0.012606278 -0.03689313
000150 06 24 78 3e e8 e1 7b be 57 88 19 be 96 d7 70 3e
       0.24232492 -0.24597895 -0.14993416 0.2351974
000160 06 29 80 bd 05 a3 cc 3d 95 49 fe 3d 2c 8b 1c be
       -0.062578246 0.09992031 0.124163784 -0.15287465
000170 ac b9 21 3c 2c d7 05 3e 73 d1 e1 bd 74 99 1a bd
       0.009870928 0.13070363 -0.110262774 -0.037744
000180 4c 99 24 3e c8 9e b1 bc 59 2e 12 bd 79 9c dd 3b
       0.16074103 -0.021682158 -0.03568873 0.0067630378
000190 74 93 03 3e e6 53 09 3c 9a 7a 2b 3e e9 47 bc 3d
       0.12849218 0.008381819 0.16745988 0.09193403
0001a0 d6 03 15 be f0 43 17 be 93 37 bb 3e 11 91 e4 bb
       -0.14552245 -0.1477201 0.36565837 -0.006975301
0001b0 80 61 13 3e 9e 3b 1a 3e 37 ca be 3d fa 6d 51 3d
       0.14392662 0.15061805 0.09315913 0.051130272
0001c0 1d d4 5d 3e 73 24 3e be 17 97 0f 3d de d9 89 3e
       0.21662946 -0.18568592 0.0350562 0.26924032
0001d0 71 90 32 3e f8 b7 77 3d 83 dd e2 bd f3 21 00 be
       0.17437913 0.06047818 -0.11077406 -0.1251295
0001e0 bd 87 45 be e6 a7 57 bc f7 13 99 3e 6e 84 c0 bd
       -0.19290061 -0.013162589 0.29898044 -0.09400259
0001f0 46 e3 da 3d f2 30 28 be d0 26 0a be 5a 7a 9c bd
       0.1068788 -0.16424921 -0.13491368 -0.07640524
000200 a3 21 e0 3d b0 54 3c 3e 7c 0b 53 be cd 0f 00 3e
       0.10943916 0.1839168 -0.2060985 0.12506028
000210 c3 f4 7d 3e 94 ed d7 3d d7 12 0b 3e 93 6a 60 3e
       0.248004 0.10543361 0.13581406 0.21915655
000220 66 1e 7b 3e 54 a9 00 3d 45 0d 56 be 90 86 3c be
       0.24523315 0.031411484 -0.209035 -0.18410707
000230 0a 42 2e bd 3c 56 a6 bd 67 69 2c be 4c 2c db 3d
       -0.04254345 -0.08121917 -0.16837083 0.10701808
000240 6f 7d 15 3b bf 68 17 be 8e f0 27 3b c2 3a 51 bc
       0.002281036 -0.14786051 0.002562556 -0.012770357
000250 70 fd fd 3d 41 62 8f 3e 54 88 35 be fe b1 59 3e
       0.12401855 0.2800465 -0.17727786 0.21259305
000260 0d 5f d9 3c 7e 51 6c 3c d4 7d 65 be d9 bb 38 be
       0.026534582 0.014423726 -0.22411281 -0.18040408
000270 25 d1 bc bd 8c 79 0e be 05 c9 17 3e bf 2b 94 bc
       -0.09219579 -0.13913554 0.14822777 -0.018087266
000280 0f 71 52 be c7 34 99 3d 8f 22 04 3e 0c 7f 00 3e
       -0.20550941 0.074807696 0.12903808 0.12548465
000290 b7 14 2e be be b5 4b 3d fb da fd bd 15 9c f2 bd
       -0.1700009 0.04973387 -0.12395283 -0.118461765
0002a0 02 92 3a be 20 4f 0c be 23 4e ca bd 38 1c cc 3d
       -0.1821976 -0.13702059 -0.09878185 0.0996632
0002b0 92 a4 a3 3c 0c 46 ec 3d d8 20 81 3e 88 37 72 3e
       0.019975934 0.11536798 0.2522037 0.23653996
0002c0 16 0d 21 3e d4 43 b8 3d 8c c4 0d be be eb 1d 3e
       0.15727648 0.08997312 -0.13844508 0.1542196
0002d0 d8 24 37 bd 06 a2 20 bd 14 89 1b be 95 39 de bd
       -0.04471287 -0.039217018 -0.1518901 -0.10850827
0002e0 05 e9 1d be 97 93 91 3e 7f 2c 4f be 97 ef 35 be
       -0.15420921 0.28432915 -0.20231818 -0.17767178
0002f0 16 e5 9e bb bc 2a 16 be 03 93 af 3d 23 a2 0a be
       -0.0048490865 -0.1466474 0.08572962 -0.13538413
000300 53 c7 d5 bd 70 2f 44 39 3e 3d 0e 3e 43 90 30 be
       -0.10438409 0.00018709688 0.1389055 -0.17242531
000310 31 0f 24 3e dc 5e d0 3d 44 4c 01 3e 3b 42 29 be
       0.1602142 0.10174343 0.1262675 -0.16529171
000320 0b c1 a8 3c ec 7e 8e be 94 0e 92 3e f2 5d e4 bd
       0.020599863 -0.2783121 0.28526747 -0.11150731
000330 1b bf df 3d 12 02 55 3d db 65 17 3d 87 ed 02 3d
       0.10925122 0.052003928 0.03696237 0.031964805
000340 d2 88 49 3c 74 17 24 3e 6b d3 89 3d bc 7e 90 3d
       0.012300687 0.16024572 0.06729778 0.07055423
000350 c1 bb 48 be c5 a7 2a 3e 3b a1 47 3e d0 7c 16 3e
       -0.19602872 0.16665561 0.19495098 0.1469605
000360 c2 ca 58 3e a2 c5 02 be e5 9f 02 be cb 02 5b 3e
       0.21171096 -0.12770703 -0.12756307 0.21387784
000370 cf 93 07 be 9f b5 12 3e 95 fa 38 be a5 c5 33 be
       -0.13239978 0.14327095 -0.1806434 -0.17555864
000380 54 d3 e9 3d b4 ed 5d be 65 89 92 bd 8c 00 36 3e
       0.11417261 -0.21672708 -0.07155112 0.17773646
000390 5b 08 06 3e c2 b9 72 3e 4e 7a 04 bd 6b 43 3b be
       0.13089125 0.23703673 -0.0323432 -0.18287437
0003a0 18 c7 8f 3e cb cb 75 bd 89 5d 18 be 84 88 8f 3d
       0.28081584 -0.060008805 -0.14879431 0.0700846
0003b0 01 20 09 be 16 64 cc 3d 6d 9f 7f 3e 76 4c 70 be
       -0.13391115 0.099800274 0.2496316 -0.23466668
0003c0 8a 47 84 be eb 53 44 3c cf ac bc 3d ff 0c 8c bd
       -0.2583583 0.011982898 0.09212648 -0.06838416
0003d0 84 86 c0 bd 73 f1 d4 bb f4 30 8e be b6 cd 0a be
       -0.09400657 -0.0064985096 -0.27771723 -0.13555035
0003e0 56 92 64 be dd c0 0f 3e 6b 60 40 3e 04 88 2c be
       -0.22321448 0.14038415 0.1878678 -0.16848761
0003f0 6e 15 85 bd 98 a1 27 3e f4 fa 68 bc 3a ef 73 be
       -0.06498228 0.16370237 -0.014219988 -0.23821726

mean.fc0.bias f4 [128]
000000 c9 49 c4 3d 65 67 27 3e aa 77 0d be 39 9f 09 3e
       0.09584386 0.16348036 -0.1381518 0.13439645
000010 de 27 35 be e0 3e 6d be 3d 8a f1 3d c8 fd 49 3e
       -0.1769099 -0.23168516 0.11793945 0.19725716
000020 dc 11 b9 3d 13 6c 2f be 10 cd 01 bd db a2 92 bd
       0.090366095 -0.17131071 -0.031689703 -0.071599685
000030 37 c1 ea bd 34 5c f8 bd 5d cc 1d 3e 76 90 31 be
       -0.11462634 -0.12126961 0.1540999 -0.17340264
000040 06 6c c7 bd ef 87 e9 bd 86 3d 22 be cd 86 7c be
       -0.09737401 -0.114028804 -0.15843782 -0.24660797
000050 7c f0 4b 3e 97 ae f1 3d 3e 7d 85 3e 0a a1 c5 bd
       0.19915956 0.118008785 0.26072115 -0.096498564
000060 91 16 46 bc 2c 63 57 be fb c8 06 3e fe 6f 55 be
       -0.012090341 -0.21033925 0.13162605 -0.20843503
000070 d8 4f 34 3e f3 ac 66 be 1f 8d a2 be a5 38 0c be
       0.17608583 -0.22526912 -0.31748292 -0.13693483
000080 7e 99 66 3e 99 2f 5c 3e c5 85 a4 bc cc f5 7e 3d
       0.2251949 0.21502532 -0.020083318 0.06224613
000090 8c ba db 3d 0e 30 e9 3d 80 97 02 3e 01 88 4c be
       0.1072894 0.11386119 0.12753105 -0.19973756
0000a0 43 c2 2d 3d 66 e8 08 3e 45 0b a1 bd cc 06 a0 3e
       0.04242159 0.13369903 -0.078634776 0.31255186
0000b0 16 50 49 be 86 d0 a0 bd 79 14 e8 bd a2 27 06 bd
       -0.19659457 -0.07852273 -0.1133203 -0.03275264
0000c0 08 92 b7 3c bd 5f f1 bd 3b 11 a5 3c 0c a7 04 3a
       0.0224085 -0.11785839 0.020149818 0.00050602923
0000d0 6f 18 a6 3d d3 85 f0 bd e5 5f 9b 3e cc 12 0a be
       0.08110129 -0.11744275 0.303466 -0.13483733
0000e0 3f ab 22 be 92 00 86 3e df e6 fe bd 06 25 7c 3e
       -0.15885638 0.2617231 -0.12446379 0.24623498
0000f0 fc 2a 58 3e d6 a0 20 be b8 b7 e8 bd a1 27 50 bd
       0.21110147 -0.15686354 -0.113631666 -0.050819043
000100 95 5d c4 3d 27 68 5e 3e ad 99 d7 bd 7f 62 1a be
       0.09588162 0.21719418 -0.10527358 -0.15076636
000110 f2 5f dc bc 1e e7 a2 bd ee 53 ab 3e ee e9 99 bd
       -0.026901219 -0.07954238 0.3346247 -0.07515322
000120 73 73 e8 bd 7d 3c 7e be 4e 66 11 3e 0e 58 8f 3d
       -0.11350145 -0.24827762 0.14199182 0.06999217
000130 1c 59 50 3e 81 a0 c7 bd f9 56 4b bd dc 18 1e 3e
       0.20346493 -0.097474106 -0.04964349 0.1543917
000140 38 ce 10 bd 6b bf 84 3d 3c 8d cb 3d f1 70 68 be
       -0.035352916 0.064818226 0.09939048 -0.22699334
000150 f2 85 e1 bd 09 04 1b be 4c 24 93 bd f2 5d e7 3d
       -0.11011876 -0.15138258 -0.071846575 0.112972155
000160 2d 25 65 bb 75 17 84 3e c0 8a d1 3d 29 c7 2f bd
       -0.0034964785 0.25799146 0.102315426 -0.042914543
000170 fb cc 36 be fe 7d cd bd a8 49 6f bd cf 7d 82 be
       -0.17851631 -0.10033797 -0.058419853 -0.2548661
000180 33 35 50 3d da ea 31 3e 57 b2 5c 3e d2 20 1d be
       0.050831985 0.17374745 0.21552406 -0.15344551
000190 5e 49 3e bd 46 ae 55 3e a8 b7 78 3d 6b 5e 90 be
       -0.046456687 0.20867261 0.060722023 -0.28197035
0001a0 38 e2 2a bd 78 29 10 3e df 76 b9 bd 89 4e 7b bd
       -0.041719645 0.14078319 -0.09055876 -0.061354194
0001b0 70 65 bc bd 52 9a fe 3d 64 a6 c2 bd 4d 15 01 3c
       -0.09199035 0.12431778 -0.09504393 0.007878614
0001c0 5b 44 78 3e fb 34 07 be 5d b8 f2 bd 47 ec 91 bd
       0.24244826 -0.13203804 -0.11851571 -0.071251445
0001d0 76 6b b9 3d 08 eb f1 3d 51 90 90 bd c8 71 1f 3e
       0.090537 0.11812407 -0.07058776 0.15570748
0001e0 84 5f 0a 3d 91 17 35 3e f5 09 16 3e d9 7e 7f be
       0.033782497 0.17684771 0.14652236 -0.24950732
0001f0 e8 02 26 3d bb 77 24 be 1e f8 ab 3e 72 9a 9a be
       0.040530115 -0.16061299 0.33587736 -0.30195957

mean.fc1.weight f4 [6, 128]
000000 c5 a7 a8 3d b4 c6 e6 3d b0 28 88 3d 76 23 d2 3c
       0.082351245 0.11268368 0.066483855 0.025651675
000010 37 47 b6 bd e9 08 05 bd 09 8e 74 bd b1 48 06 bd
       -0.08900302 -0.0324792 -0.059705768 -0.032784168
000020 39 1e 05 bd bc 63 8b 3d a5 33 a0 3d 46 48 a2 3d
       -0.032499526 0.06806132 0.078223504 0.07923941
000030 bc a4 1c 3c 27 12 a2 bc 64 f1 bd 3d 18 5d 03 3d
       0.00956076 -0.019784046 0.09274557 0.032071203
000040 62 28 fd 3d 6e 10 26 3d 6c d2 a5 bd e8 62 c5 3d
       0.12361218 0.040543012 -0.080967754 0.096380055
000050 ef 4f bc bd de 71 cd 3c 35 78 20 3c 32 f1 44 bc
       -0.091949336 0.02507871 0.009794285 -0.012020396
000060 dc 13 07 3c d4 3a 92 bc 81 38 15 be 6d 0d 03 be
       0.008244481 -0.017850317 -0.14572336 -0.1279809
000070 3a a0 be bd 15 f2 94 bb 9c 5d 9f bc 92 12 bb 3d
       -0.093079045 -0.00454546 -0.019453816 0.091344014
000080 e3 bd de 3d 9a 5d 92 bc 37 4c c1 bc 3d ba c7 3d
       0.10876062 -0.017866898 -0.023595912 0.09752319
000090 e5 af cd bd 15 f4 42 bc 8e a7 3a bd 92 39 8a 3d
       -0.10043315 -0.011899014 -0.04556995 0.06749262
0000a0 a6 30 30 3d 34 cd 7c bd 6d b3 b3 bd 22 37 01 3e
       0.043015145 -0.061719134 -0.08774457 0.12618688
0000b0 e3 d9 29 3d 5c 3f 0a bd 6a 9c 78 bd 1a 98 05 be
       0.04146756 -0.03375183 -0.060696043 -0.13046303
0000c0 1b 47 25 3d ea 4c 2f 3b 27 da 04 3d 7a 9b 53 bc
       0.040351015 0.0026748725 0.03243461 -0.0129154865
0000d0 87 2d 4a 3d d0 c7 14 be 23 22 12 3d 78 8d 8a 3d
       0.049359825 -0.14529347 0.035677087 0.06765264
0000e0 95 60 8d bd 1b 1c 13 3d 09 98 36 3d 62 f8 f0 3c
       -0.06903187 0.035915475 0.044578586 0.029415313
0000f0 7e 18 4b 3d 74 d3 a1 bc 77 22 32 3c c5 c1 4f 3d
       0.049583904 -0.019754149 0.010872475 0.050721902
000100 5f a6 d2 3d a7 83 a5 bd 4c 11 96 bd 9a 84 08 3d
       0.10285639 -0.08081751 -0.07327518 0.033329584
000110 87 a8 86 3d 69 c9 ab bd 6f 40 1c 3d b6 c8 93 bc
       0.06575113 -0.08388025 0.038147386 -0.018040042
000120 5b 6e 02 bd 54 36 42 bb 4d fe 10 3e 46 16 03 be
       -0.031843524 -0.0029634433 0.14159508 -0.12801465
000130 4f 8a d5 bc 4a e0 9c bd 95 c9 ac 3c 73 a9 4b bc
       -0.026066927 -0.07659967 0.021092216 -0.012430537
000140 a1 45 0d 3c db 52 32 be ad 8a a4 3d da 6c f1 bd
       0.008622558 -0.1741442 0.08034263 -0.1178834
000150 75 6d c8 3d 09 42 50 bd d9 be 22 3e 5f 98 aa bd
       0.09786502 -0.050844226 0.15893115 -0.08329844
000160 3e d8 2d bd 9a 54 a9 3d 9a a1 04 3e 61 91 b7 bd
       -0.042442553 0.082680896 0.12952271 -0.08963276
000170 0a cf c0 bd 44 dd 8b 3d d1 da 3f bd cb 4a db 3c
       -0.094144896 0.068293124 -0.04683954 0.026769063
000180 50 32 9c bd 4b b6 f6 3c c4 3c 7d 3c a1 1c 4b 3d
       -0.07626784 0.030116221 0.015456382 0.04958785
000190 da 89 8f bc f2 5e 54 bd 93 fb a4 bd a4 cc 44 3d
       -0.017521787 -0.05184836 -0.080557965 0.048046723
0001a0 c9 0a 64 3d fb a7 fb bd ae fe e3 3d ff b2 09 bd
       0.055674348 -0.12287899 0.11132561 -0.03361797
0001b0 24 75 ca bd 08 28 c9 3d ca 3a 2a 3e f8 eb 96 3b
       -0.09885624 0.098220885 0.16623989 0.0046057664
0001c0 33 5d ba ba 37 7b 29 bc 20 6c 23 bd c4 28 15 3c
       -0.0014218449 -0.010344318 -0.039898038 0.009103958
0001d0 ba 52 6b 3d f0 bb 8d bd f5 40 22 3c 22 bf 23 3e
       0.05745194 -0.06920612 0.009903182 0.1599088
0001e0 5f 94 09 be da 2e ce bd 31 96 e2 3d 9e 62 ab 3c
       -0.13435505 -0.1006753 0.11063803 0.020921048
0001f0 16 87 24 3c 47 39 ce 3c 0a 7e 28 bc d9 db c9 3b
       0.010041973 0.025173796 -0.010283956 0.006160241
000200 f3 23 16 3e 3a 81 c6 3d be 7e c4 3d 58 04 4b 3b
       0.14662151 0.09692617 0.09594487 0.003097793
000210 cc fa 59 bc 4d 8b 9a 3d 5e dd 10 3d ec 2e 8f 3c
       -0.013304424 0.07546101 0.035367362 0.017478429
000220 3f c8 f0 3b dc 8f d9 3d ab 5e 91 3b d0 01 ca 3d
       0.00734809 0.10623142 0.004436334 0.09863627
000230 35 d8 b9 3d be b9 06 3e dc f4 10 3e 36 0b 06 3c
       0.09074441 0.13156793 0.14155906 0.008181384
000240 ee bc ce 3d c9 4b f7 3c f1 ed 2b 3d 48 d9 ae 3c
       0.10094629 0.030187504 0.041974965 0.021343842
000250 24 26 d2 bc 97 98 c3 3d 60 4a d5 3c 3c 27 25 3e
       -0.025652952 0.095505886 0.026036441 0.16128248
000260 e7 cf e4 3d 61 87 1c 3d ac d9 94 3c 48 8e 50 bc
       0.11172467 0.038215045 0.0181702 -0.012729235
000270 c9 ef c7 3c 9b 50 2d bb a4 dd 91 3d 53 57 cc 3d
       0.02440633 -0.002644575 0.07122353 0.09977593
000280 7b 38 0f 3e 00 6b 92 3d 43 66 61 3d b6 c7 0d 3d
       0.1398639 0.07149315 0.055029165 0.034614287
000290 bc dd 7d 3d d1 00 ff 3d 20 d0 82 bc be 34 4d bd
       0.06197904 0.124513276 -0.015968382 -0.050099127
0002a0 ba b4 ca 3d ea d5 49 3d b9 d5 dd 3c cb d9 4f 3c
       0.09897752 0.04927627 0.02707945 0.012686203
0002b0 c8 a2 2e 3b 28 97 6b bb 49 49 1f bc 58 d6 1c bc
       0.0026647318 -0.003594825 -0.009722062 -0.009572588
0002c0 1e 7f f2 3c f6 cb 09 3e ca 6d a4 3c 5f bc ff 3d
       0.02960163 0.13456711 0.020071883 0.12487101
0002d0 a3 30 d0 3b 18 cc 04 3d 77 0c ae 3d c6 91 72 bc
       0.006353454 0.0324212 0.08498471 -0.014805263
0002e0 bf 15 98 3d 6f 1d 1f 3e e6 d4 02 3d d8 dd 21 3e
       0.07426023 0.15538572 0.031941317 0.15807283
0002f0 e7 0e 5d 3d 61 a8 07 3d 7f 4c d8 3d 6e d5 17 3e
       0.05396929 0.033119563 0.105614655 0.1482751
000300 4c 8e 1d 3e 91 d3 f7 3d 95 0d 6a 3b cd 1e 28 3d
       0.15386313 0.121009 0.0035713662 0.041045
000310 65 0b 9e 3d d8 2c 4e bd 6c b1 04 3e 21 92 5e 3d
       0.07717017 -0.050335735 0.12958306 0.054338578
000320 3d 66 20 bd c4 eb 9e 3c 9d b6 0a 3d b2 cd 92 3d
       -0.039160002 0.019399531 0.03386556 0.071681395
000330 dd 62 e7 3c b2 bc 4f 3d 6e 39 a4 3d 72 6e c4 3d
       0.028245384 0.050717063 0.08018766 0.09591378
000340 f0 8e 61 bc 09 58 02 3e fc 32 31 bb 3d ff 62 3b
       -0.013766989 0.12728895 -0.0027038446 0.0034636997
000350 69 4c cb 3d 27 14 58 3c e9 5c 02 3e d4 de 0c 3e
       0.099266835 0.013188398 0.12730755 0.13756877
000360 3e 6c 11 3d cc ff 88 3d 6d 97 cd 3c c4 f1 45 3d
       0.03550362 0.066894144 0.02509662 0.04832627
000370 a4 cd 22 3d 32 94 c4 3c 78 a9 c6 3b 34 7f f6 bb
       0.039746895 0.023996446 0.0060626827 -0.007522488
000380 e6 1b c4 3a a0 bd bd 3d f7 37 98 3d 75 1a a6 3c
       0.0014961928 0.09264684 0.074325494 0.020276288
000390 ad e3 66 3d 6a f1 96 3d 6c 2c 13 3e 47 5a 94 bc
       0.056369472 0.07370265 0.14372414 -0.018109454
0003a0 b9 16 d3 3c 26 a5 46 3d 8e 9d 20 3d 90 d8 98 3c
       0.025767671 0.04849734 0.039212756 0.018657953
0003b0 04 db ed 3d 03 8e 31 3d ce 81 a1 3d 84 1e 6a 3c
       0.116140395 0.043348324 0.078860864 0.014289502
0003c0 42 c1 1b 3e 69 6c cf bc 6b 82 28 3d 61 38 09 3e
       0.15210441 -0.025320249 0.04114 0.13400413
0003d0 15 53 e6 3d d9 dd 44 bb c4 5d bf 3d a0 de 59 3d
       0.112463154 -0.0030039458 0.09344056 0.053190827
0003e0 ea 2b 24 3d f4 3b e3 3d f4 a7 93 3d b9 2c d1 3d
       0.040080942 0.110954195 0.07209769 0.10213608
0003f0 82 7e 6c 3d ba 51 36 3c 2f 74 a4 3d ac d7 ae 3d
       0.057737835 0.011127884 0.08029973 0.0853723

mean.fc1.bias f4 [6]
000000 ec 67 d7 3d a2 6d 07 3c 23 87 8a bb fc ed 0f 3e
       0.105178684 0.008265885 -0.0042275353 0.14055628
000010 30 af 91 3d c4 81 8e 3d
       0.071134925 0.069583446
