cs294-homework/hw3/data/ac_ac_100_1_InvertedPendulum-v2_13-04-2019_13-38-30/1/vars_policy.pkl (torch_old, 4069 bytes, 3 tensors)

mean.fc0.weight f4 [128, 4]
0.3573479 0.27715224 -0.22690852 0.42646253 -0.38907018 0.77168065 0.09339688 0.225458
0.03639947 0.22181271 0.06632535 0.10895241 0.18261409 -0.1948505 -0.03645438 -0.045013666
0.17197646 0.4219287 0.5609123 0.07290832 -0.2836777 -0.26052117 -0.1453774 -0.16082627
-0.17745292 -0.021905392 0.31635875 0.22538663 -0.5237972 0.85058767 0.24226089 0.50934905
0.08148669 -0.9026225 -0.65001637 -0.32174724 0.43821996 -0.58421344 0.2590801 -0.35942805
0.5753626 -0.6840755 0.341388 -0.101240285 -0.30873054 0.81103885 -0.28775424 0.28810367
-0.28636697 -0.65858084 -0.6490762 -0.39159584 0.26218054 -0.08841601 0.5478594 0.28713733
0.04016576 -0.82394236 0.2907119 0.047868144 -0.21680328 0.7335736 0.4636139 0.30304915
-0.35665512 -0.25468215 -0.065060474 0.12708578 -0.381504 -0.2868241 0.2029691 -0.049606003
0.31685603 -0.40663064 0.14495651 -0.016823899 0.11837396 0.7446221 -0.37445343 0.36678797
-0.28104928 -0.87960076 0.02016988 -0.18947834 0.22931929 0.13247004 -0.40330228 0.50915426
0.0280708 -0.20109741 0.115064844 -0.492181 -0.0028121073 -0.27479595 -0.44720063 -0.43338948
0.06683067 -0.14301862 -0.29555088 -0.065053195 0.5276801 0.430128 0.49196017 0.16193455
-0.32871643 -0.35434198 0.41910356 0.08659191 0.44670305 0.38101164 0.26623437 0.2812856
0.47392905 -0.6168899 0.16837308 0.28205854 0.3707206 -0.2101391 -0.27461275 -0.51390684
-0.45116127 -0.036078118 0.4111067 -0.25282875 0.17896786 -0.91715455 -0.5957396 -0.12848295
0.2974345 0.39795405 -0.23917453 0.039266463 0.2798055 0.9158959 0.3925995 0.4140807
0.34895757 -0.47088522 -0.2660131 -0.59078884 -0.3020913 0.3917619 -0.25584054 0.30699936
0.15057877 -0.14767149 0.22271572 0.0812629 0.39846578 0.6465724 -0.017293423 0.36716118
-0.18398842 -0.2999824 -0.5537121 -0.24523763 -0.27298912 -0.70787954 0.38896966 -0.2855926
-0.4187695 0.7179328 0.23510943 0.4113645 -0.1824645 0.17045094 -0.10550085 -0.064852804
-0.339809 -0.2940304 -0.083796866 0.14411154 0.1560429 0.59503806 0.7065159 0.339618
0.2827885 0.5132737 -0.23514862 0.49936146 -0.2695615 -0.63850373 -0.558781 -0.08411389
-0.38124186 0.16981894 -0.5285455 -0.3882455 0.04539496 -0.8355846 0.27364826 -0.33542195
-0.18082438 -0.42922965 0.3652973 -0.46213573 0.28358483 -0.10545388 0.48202646 -0.4493274
-0.028932367 -0.5349309 0.3609907 -0.14332469 0.25385132 0.05585616 -0.022860374 -0.029608065
0.1876337 0.5219182 0.16690882 0.05044973 -0.4345815 0.9086238 0.63605344 0.2873712
0.47252318 -0.34040302 -0.12545842 0.3734023 -0.41816384 -0.043847505 -0.3693735 -0.48440632
0.19219053 0.09844606 -0.04989269 0.5174 0.4970425 -0.022878885 -0.13454694 -0.5074219
0.4138284 0.30677447 -0.17616817 0.23629704 -0.43628293 0.36425877 0.22584385 -0.31482026
-0.3741767 -0.1579006 0.29842663 -0.087950364 -0.40055484 -0.5395058 -0.4966228 -0.6002063
-0.29630628 0.04471828 0.40974584 -0.2737052 -0.035685394 0.2895722 -0.014875563 -0.17631818
00000000: 4ef6 b63e e6e6 8d3e b55a 68be 4c59 da3e
00000010: 3534 c7be dd8c 453f dd46 bf3d 76de 663e
00000020: 9c17 153d df22 633e 96d5 873d 7122 df3d
00000030: 30ff 3a3e e486 47be 3051 15bd 4060 38bd
00000040: 991a 303e 0a07 d83e f397 0f3f f550 953d
00000050: 343e 91be 0863 85be d0dd 14be a4af 24be
00000060: 38b6 35be f072 b3bc c6f9 a13e c1cb 663e
00000070: 9317 06bf 1dc0 593f 3d13 783e b364 023f
00000080: 7ee2 a63d 4512 67bf 7967 26bf 0ebc a4be
00000090: 5e5e e03e 038f 15bf 26a6 843e f406 b8be
000000a0: f74a 133f 921f 2fbf 68ca ae3e 1157 cfbd
000000b0: ee11 9ebe 3ea0 4f3f 8654 93be 5382 933e
000000c0: b19e 92be c198 28bf dc29 26bf 407f c8be
000000d0: 873c 863e 7413 b5bd 8340 0c3f aa03 933e
000000e0: da84 243d e3ed 52bf 31d8 943e 6311 443d
000000f0: ae01 5ebe 7bcb 3b3f cd5e ed3e 4229 9b3e
00000100: 809b b6be b365 82be 6d3e 85bd c622 023e
00000110: 7e54 c3be 9cda 92be 22d7 4f3e aa2f 4bbd
00000120: f43a a23e e431 d0be 7b6f 143e 46d2 89bc
00000130: 0c6e f23d 8e9f 3e3f 5cb8 bfbe a2cb bb3e
00000140: b1e5 8fbe 842d 61bf 4e3b a53c 9c06 42be
00000150: add2 6a3e 3aa6 073e a37d cebe ef57 023f
00000160: bcf4 e53c 7bec 4dbe 1ea7 eb3d 26ff fbbe
00000170: 554b 38bb 0eb2 8cbe 7bf7 e4be 3ae5 ddbe
00000180: 85de 883d 7973 12be 7252 97be 9c3a 85bd
00000190: 0b16 073f bd39 dc3e 34e2 fb3e 2cd2 253e
000001a0: 854d a8be 506c b5be be94 d63e 1957 b13d
000001b0: 43b6 e43e f513 c33e df4f 883e ab04 903e
000001c0: d4a6 f23e 7fec 1dbf fe69 2c3e fa69 903e
000001d0: 17cf bd3e b42e 57be 0b9a 8cbe 668f 03bf
000001e0: 9cfe e6be a6c6 13bd 947c d23e c572 81be
000001f0: 5a43 373e a4ca 6abf 6482 18bf 0991 03be
00000200: 5649 983e a2c0 cb3e 2bea 74be dfd5 203d
00000210: ab42 8f3e 2778 6a3f cd02 c93e 6302 d43e
00000220: 91aa b23e de17 f1be de32 88be f03d 17bf
00000230: b6ab 9abe 0495 c83e 88fd 82be 052f 9d3e
00000240: 5231 1a3e 3237 17be 970f 643e 2a6d a63d
00000250: b503 cc3e c585 253f f0aa 8dbc 8dfc bb3e
00000260: 7667 3cbe 4b97 99be 14c0 0dbf 931f 7bbe
00000270: 3bc5 8bbe 9837 35bf 0827 c73e 3139 92be
00000280: f568 d6be 72ca 373f 87c0 703e 5e9e d23e
00000290: f9d7 3abe b18a 2e3e d410 d8bd 8cd1 84bd
000002a0: 72fb adbe 278b 96be b19d abbd fa91 133e
000002b0: b6c9 1f3e 6a54 183f 3ade 343f 69e2 ad3e
000002c0: a7c9 903e e865 033f cdca 70be 4eac ff3e
000002d0: f703 8abe fb74 23bf 460c 0fbf e743 acbd
000002e0: 2232 c3be 04e5 2d3e c24e 07bf 1dc8 c6be
000002f0: 11f0 393d dfe8 55bf a01b 8c3e 6dbc abbe
00000300: 072a 39be fdc3 dbbe 3f08 bb3e 0e9d ecbe
00000310: 0832 913e 34f8 d7bd 2ccc f63e 3e0e e6be
00000320: 9203 edbc 3bf1 08bf c6d3 b83e b5c3 12be
00000330: cdf8 813e 6ec9 643d ae45 bbbc 9d8c f2bc
00000340: 0c23 403e 6e9c 053f 25ea 2a3e 60a4 4e3d
00000350: 7781 debe 929b 683f 66d4 223f 5122 933e
00000360: 8fee f13e 4e49 aebe 2c78 00be 962e bf3e
00000370: 9219 d6be 7199 33bd 861e bdbe 1b04 f8be
00000380: 98cd 443e 179e c93d 475c 4cbd 5474 043f
00000390: 5b7c fe3e 806c bbbc acc6 09be 67e6 01bf
000003a0: 51e1 d33e 8b11 9d3e 6e65 34be daf7 713e
000003b0: 7a60 dfbe 2080 ba3e 9c43 673e 1f30 a1be
000003c0: 1794 bfbe b2b0 21be 60cb 983e 521f b4bd
000003d0: 8615 cdbe 0d1d 0abf 5845 febe 1fa7 19bf
000003e0: 75b5 97be 842a 373d 35ca d13e 1723 8cbe
000003f0: d92a 12bd cf42 943e a2b8 73bc c18c 34be

mean.fc0.bias f4 [128]
-0.20356143 0.3661135 0.2106826 -0.49135578 -0.28343186 -0.37889168 -0.33194503 0.2412388
-0.2641367 -0.2539074 0.3211371 -0.0015131037 0.09254788 -0.4710158 0.29254812 0.10742574
-0.120110355 -0.37715894 0.17504917 0.21254267 0.31531984 0.16003323 -0.008110183 -0.2460436
0.24818714 0.10427541 -0.39500073 0.48913878 0.30710548 -0.2516007 -0.31909767 0.11789177
-0.35948148 0.309277 -0.16366488 0.38955414 -0.230185 0.26036087 -0.021071903 -0.079555735
0.32063657 -0.45655346 -0.33332974 0.14667265 0.41738072 0.029481847 -0.3388934 -0.110035606
-0.14279605 -0.1486668 -0.15102504 -0.33176804 0.22534516 0.18576676 -0.40001565 -0.1425801
0.14038531 0.0694281 0.2806634 -0.16966492 -0.35691494 -0.09918299 -0.1726523 -0.18644619
0.1432105 -0.020861479 0.13354854 -0.053758387 0.2991749 0.20395081 -0.015189754 0.44759393
0.036304817 -0.27203465 -0.0024285966 0.38929322 0.17405136 0.33771905 0.05675759 0.4299179
0.18074982 0.12568012 0.108145736 0.57137895 0.025853494 -0.12246993 0.12116897 0.5785654
0.29985803 0.025512785 0.4028147 0.14515391 -0.2543799 -0.45513302 0.23109613 0.40713525
-0.1588081 0.15890218 -0.025914134 0.06134442 -0.07478074 0.29479963 0.18189217 0.2544891
0.28253728 0.34303254 0.36623898 0.08314091 -0.030809527 0.061642308 0.41194633 0.18708917
0.24607308 0.5604258 0.07649207 0.26281065 0.009758259 0.38530636 0.45698538 -0.1095932
-0.08210453 -0.2917174 -0.272958 -0.17107315 -0.14251588 0.097544014 -0.20513491 -0.16911803
00000000: 6872 50be 3b73 bb3e 2ebd 573e fc92 fbbe
00000010: fb1d 91be 17fe c1be b3f4 a9be 4e07 773e
00000020: ed3c 87be 2700 82be 156c a43e 5653 c6ba
00000030: be89 bd3d fc28 f1be dec8 953e 0702 dc3d
00000040: 6bfc f5bd fa1a c1be 1740 333e c9a4 593e
00000050: 9a71 a13e c0df 233e 93e0 04bc daf2 7bbe
00000060: c524 7e3e 598e d53d 893d cabe 6670 fa3e
00000070: ee3c 9d3e cfd1 80be c560 a3be 3e71 f13d
00000080: f50d b8be 8e59 9e3e c497 27be a473 c73e
00000090: 9eb5 6bbe 054e 853e fc9e acbc 1eee a2bd
000000a0: 7a2a a43e 60c1 e9be 32aa aabe 5b31 163e
000000b0: edb2 d53e ea83 f13c 7083 adbe 595a e1bd
000000c0: 2139 12be 1c3c 18be 4fa6 1abe 80dd a9be
000000d0: e2c0 663e a439 3e3e dace ccbe 8500 12be
000000e0: 2bc1 0f3e 5230 8e3d 1db3 8f3e a4bc 2dbe
000000f0: 8ebd b6be 7420 cbbd c4cb 30be c0eb 3ebe
00000100: c6a5 123e b1e5 aabc f3c0 083e c131 5cbd
00000110: 742d 993e 7bd8 503e 72de 78bc 082b e53e
00000120: 5cb4 143d 2048 8bbe 1729 1fbb 7151 c73e
00000130: 853a 323e 83e9 ac3e a67a 683d 331e dc3e
00000140: 7b16 393e 4ab2 003e 837b dd3d e445 123f
00000150: b5ca d33c 84d1 fabd 7027 f83d dd1c 143f
00000160: fe86 993e 3000 d13c ba3d ce3e 3aa3 143e
00000170: 153e 82be 3207 e9be 77a4 6c3e 0874 d03e
00000180: 979e 22be 41b7 223e e149 d4bc 4944 7b3d
00000190: a526 99bd faef 963e f141 3a3e 654c 823e
000001a0: baa8 903e f6a1 af3e ad83 bb3e c845 aa3d
000001b0: 4364 fcbc a57c 7c3d a1ea d23e 4e94 3f3e
000001c0: 95fa 7b3e 1178 0f3f e0a7 9c3d 1e8f 863e
000001d0: 1be1 1f3c e046 c53e fdf9 e93e 6672 e0bd
000001e0: 6b26 a8bd fc5b 95be 27c1 8bbe cd2d 2fbe
000001f0: afef 11be 28c5 c73d e30e 52be 472d 2dbe

mean.fc1.weight f4 [1, 128]
0.17410532 0.12802604 0.03298767 0.071847074 0.20364471 -0.025092991 -0.022893012 0.26661
-0.281105 -0.12886629 -0.16368146 0.20079799 -0.351259 0.09522998 -0.20594744 0.13764502
-0.08031901 0.013220665 -0.049201287 0.16485098 -0.289232 0.1393219 -0.09569016 -0.21827453
-0.037183236 0.23632583 -0.004090598 0.083735704 -0.04233941 -0.17325579 -0.04343408 -0.29831207
-0.0076405806 0.26858667 -0.15072124 0.09844005 0.033693798 0.10041272 -0.08747107 -0.18333776
0.24336578 0.013797247 -0.006346405 0.18335265 0.12182071 -0.29736763 -0.06501163 -0.21112588
-0.13623202 -0.12501234 -0.052958176 -0.015327128 0.13315439 0.2353962 0.037505325 -0.24103478
0.10733348 -0.084026024 0.11408012 -0.009376253 -0.13210319 -0.29901928 -0.07164563 -0.025285574
-0.0658011 0.15498799 -0.06126485 0.2704608 0.037859358 -0.15134954 0.21817732 0.036189295
-0.0004429225 -0.12701537 -0.3516472 -0.13483952 0.043871254 0.010891573 -0.109287925 0.0062081027
-0.054502703 0.10701862 0.2887098 -0.22038342 -0.06609831 0.1261831 -0.17999972 -0.15706338
0.15795791 -0.07305908 -0.04265848 -0.05662068 0.09576618 -0.059374344 0.21510345 -0.079103895
0.1822217 0.02103118 -0.053876385 0.262529 -0.16105825 -0.269562 0.17288275 0.06011922
-0.18858644 0.24930024 -0.008801615 -0.041810617 -0.026061745 0.27708727 0.19432953 0.22759019
0.09175492 -0.06745508 -0.19039348 -0.011890896 0.171442 -0.090105474 0.19571604 -0.119613394
-0.030342594 0.050594106 0.002954049 -0.03442654 0.05364527 -0.29378948 -0.22498356 0.20250297
00000000: aa48 323e 4219 033e 141e 073d 8f24 933d
00000010: 3d88 503e d18f cdbc 208a bbbc 1b81 883e
00000020: ffec 8fbe 86f5 03be 1d9c 27be fd9d 4d3e
00000030: 38d8 b3be f007 c33d e3e3 52be d1f2 0c3e
00000040: 4b7e a4bd 7d9b 583c 4a87 49bd b2ce 283e
00000050: 3716 94be 66aa 0e3e 34f9 c3bd 5c83 5fbe
00000060: 734d 18bd 66ff 713e 6c0a 86bb a07d ab3d
00000070: 176c 2dbd f769 31be efe7 31bd 5cbc 98be
00000080: d65d fabb 3184 893e ab56 1abe f09a c93d
00000090: 8202 0a3d 2fa5 cd3d 0824 b3bd e5bc 3bbe
000000a0: e134 793e d90d 623c 81f5 cfbb ccc0 3b3e
000000b0: 237d f93d 9240 98be d124 85bd 6231 58be
000000c0: 6880 0bbe 3c03 00be acea 58bd a21e 7bbc
000000d0: a059 083e b40b 713e 2f9f 193d d2d1 76be
000000e0: a8d1 db3d d615 acbd d7a2 e93d db9e 19bc
000000f0: 0f46 07be 0e19 99be f2ba 92bd b123 cfbc
00000100: bac2 86bd 2cb5 1e3e daf0 7abd d779 8a3e
00000110: 6a12 1b3d 60fb 1abe e069 5f3e 3a3b 143d
00000120: 0d38 e8b9 5110 02be 1a0b b4be 5f13 0abe
00000130: 58b2 333d 9172 323c 59d2 dfbd 576d cb3b
00000140: 3a3e 5fbd 942c db3d c5d1 933e 31ac 61be
00000150: 8d5e 87bd 2436 013e d951 38be 39d5 20be
00000160: b8bf 213e 00a0 95bd a9ba 2ebd 16eb 67bd
00000170: 0f21 c43d 8332 73bd 1444 5c3e 3901 a2bd
00000180: 5398 3a3e 9549 ac3c 7cad 5cbd 336a 863e
00000190: 74ec 24be 0804 8abe 2d08 313e 923f 763d
000001a0: ce1c 41be 9048 7f3e a634 10bc 9c41 2bbd
000001b0: 717f d5bc 62de 8d3e 52fe 463e 670d 693e
000001c0: 01ea bb3d e425 8abd 82f6 42be 08d2 42bc
000001d0: 7e8e 2f3e 3889 b8bd c969 483e def7 f4bd
000001e0: 0891 f8bc c43b 4f3d b898 413b d802 0dbd
000001f0: 25bb 5b3d 936b 96be 1762 66be f05c 4f3e
