cs294-homework/hw3/data/ac_ac_10_10_Walker2d-v2_13-04-2019_12-18-48/1/vars_policy.pkl (torch_old, 13326 bytes, 5 tensors)

std f4 [1, 6]
0	0x3f6ef3e5	0.93340904
1	0x3f709cd4	0.939893
2	0x3f28b140	0.6589546
3	0x3f462d51	0.774129
4	0x3f6c1c9b	0.9223115
5	0x3f427798	0.75963736

mean.fc0.weight f4 [128, 17]
0	0x3e8acd97	0.27109978
1	0xbddf0411	-0.108894475
2	0xbd8b7e21	-0.068111666
3	0x3e4bd8ac	0.19906873
4	0xbd334db5	-0.04377528
5	0x3de3bbbf	0.11119794
6	0x3d66b39a	0.056323625
7	0x3e8b8a23	0.27253827
8	0xbcec7f1f	-0.02886921
9	0xbc1f7adb	-0.009733881
10	0x3b5131f9	0.0031920655
11	0xbd48e767	-0.049048807
12	0x3de527a7	0.11189204
13	0xbe314dc1	-0.17314817
14	0xbd3d6892	-0.046242304
15	0xbe06b351	-0.13154341
16	0xbb50db1f	-0.0031868888
17	0xbb7b0a32	-0.0038305637
18	0x3e67c5ea	0.22634092
19	0x3d884165	0.06653098
20	0xbdb33805	-0.08750919
21	0xbdcd4f72	-0.100249186
22	0xbd9ac2c0	-0.07556677
23	0xbdefcf47	-0.11709457
24	0xbca5e0aa	-0.02024873
25	0x3d156127	0.036469605
26	0x3daccb0b	0.08437165
27	0x3ddd72da	0.10812922
28	0xbe8729a7	-0.26398966
29	0x3dd04fa7	0.101714425
30	0x3dcef8db	0.10106059
31	0x3e3a9207	0.18219768
32	0x3e4a0cb8	0.19731414
33	0xbe4d9d27	-0.2007948
34	0xbe7063c3	-0.23475556
35	0xbde678f0	-0.11253536
36	0x3e327fbd	0.17431541
37	0x3b5f4166	0.003406608
38	0x3dfb312b	0.122652374
39	0xbe0547d0	-0.13015676
40	0x3e89aa61	0.268878
41	0xbd920277	-0.071293764
42	0x3e488c94	0.19584876
43	0xbcb3ee88	-0.021964327
44	0xbe12bc49	-0.14329638
45	0x3dc79108	0.097444594
46	0xbdc00b27	-0.09377127
47	0x3dcc2ce4	0.099695
48	0xbdc1a189	-0.094546385
49	0x3c7ef970	0.0155624
50	0xbe84f1a9	-0.25965622
51	0xbdefb963	-0.117052816
52	0x3e3a2526	0.18178234
53	0xbbe336b3	-0.006934011
54	0x3e623e44	0.22094065
55	0x3ec0044a	0.37503272
56	0x3cfe8dab	0.031073412
57	0xbe80e96d	-0.2517809
58	0x3e97ec2f	0.2967238
59	0x3e172438	0.1475991
60	0xbe5e025a	-0.21680585
61	0x3e3ac47f	0.1823902
62	0x3e3482b9	0.17627992
63	0x3e2b94bf	0.16755961
64	0xbdaeeb6d	-0.08540998
65	0xbd55c506	-0.05218985
66	0x3644bf47	2.9317614e-06
67	0x3dacecaf	0.08443581
68	0xbe806901	-0.25080112
69	0xbdf88222	-0.12134196
70	0x3e556786	0.20840272
71	0xbd2f8d8b	-0.042859595
72	0x3db6b117	0.08920496
73	0x3d87e12c	0.06634745
74	0x3da203ff	0.079109184
75	0x3dca220a	0.09869774
76	0x3e13b51f	0.14424561
77	0x3e08769e	0.13326499
78	0xbe20c3fe	-0.15699765
79	0x3e2e8865	0.17044218
80	0xbdfb314f	-0.12265264
81	0xbddb0d93	-0.106959485
82	0x3daf40d1	0.085572846
83	0xbd040f19	-0.03224096
84	0x3e021c82	0.12706187
85	0xbe4c771e	-0.19967315
86	0xbe3d5e61	-0.18493034
87	0x3e577709	0.21041502
88	0xbd4e1ee0	-0.050322413
89	0x3de1b137	0.11020129
90	0x3deb6d51	0.1149546
91	0xbe6ca2ff	-0.23109053
92	0x3cd0450e	0.025423553
93	0x3dc525b6	0.096263334
94	0xbe15fca4	-0.14647156
95	0xbd9827bb	-0.07429453
96	0x3dfc6fa0	0.12325978
97	0x3c5698b7	0.0130979335
98	0xbdb18cab	-0.086694084
99	0xbd0c51b6	-0.034257613
100	0x3e31d102	0.17364886
101	0x3bfef01c	0.007780088
102	0x3dedd184	0.116122276
103	0x3e1425f4	0.14467603
104	0xbda72411	-0.08161176
105	0xbe5a304d	-0.21307488
106	0x3ea54dbf	0.32285878
107	0x3d6cd95e	0.057824485
108	0x3e437123	0.19086127
109	0x3e12f576	0.14351448
110	0x3ddc5b9e	0.10759662
111	0x3e08a059	0.13342418
112	0x3e4fa667	0.20278321
113	0xbe4fec2f	-0.2030494
114	0x3d4e4c9d	0.050366033
115	0x3e2dec4b	0.1698467
116	0x3e0d3520	0.13789797
117	0x3e1f312e	0.15546104
118	0xbdfaed35	-0.12252275
119	0xbe1ff04f	-0.15619014
120	0xbe009548	-0.12556946
121	0x3cd57526	0.026056837
122	0x3e93e0b1	0.28882363
123	0xbdfc6ca8	-0.12325412
124	0x3df731f1	0.120700724
125	0xbe154385	-0.14576538
126	0xbe314153	-0.17310075
127	0xbd28fff4	-0.04125972
128	0x3dbc9503	0.09208109
129	0x3e4e6e4d	0.20159264
130	0xbe392153	-0.18079118
131	0x3da5268d	0.080639936
132	0x3e6b7c23	0.22996573
133	0x3e088e2d	0.13335486
134	0x3e2f9c8a	0.17149559
135	0x3e575faa	0.21032587
136	0x3e6be410	0.23036218
137	0x3d8c2210	0.068424344
138	0xbe05df26	-0.13073406
139	0xbe5c91d9	-0.21540011
140	0x3c6d5583	0.01448572
141	0xb764ce14	-1.363784e-05
142	0xbdfdde04	-0.12395862
143	0x3e301a74	0.17197591
144	0x3d96ec77	0.07369321
145	0xbced9843	-0.029003268
146	0x3decac7f	0.115563385
147	0x3dc062e9	0.093938656
148	0x3e342457	0.17591988
149	0x3e3c4e0d	0.18389149
150	0xbd80435b	-0.06262847
151	0x3e804091	0.2504926
152	0xbd9aa2cd	-0.07550583
153	0x3d0aa1e8	0.033845812
154	0xbe787d67	-0.24266587
155	0xbe521606	-0.20516214
156	0xbdec7873	-0.11546411
157	0xbdd50afb	-0.10402485
158	0x3e1c1ffc	0.15246576
159	0xbbc654fc	-0.0060526114
160	0xbe3d515f	-0.18488072
161	0x3d6a25fa	0.057165124
162	0x3ddcb1a9	0.107760735
163	0x3dc6ccc2	0.09707023
164	0xbe3562d1	-0.17713477
165	0x3cf12694	0.02943734
166	0xbe041d46	-0.12901792
167	0xbdf60f05	-0.120145835
168	0xbe0d4d43	-0.13799004
169	0xbe157492	-0.1459525
170	0xbd191ad3	-0.037379097
171	0x3da7c495	0.08191792
172	0x3d999845	0.07499746
173	0x3ce7b64e	0.028285172
174	0x3e934ebc	0.28771007
175	0x3e5cf757	0.21578728
176	0x3e370442	0.17872718
177	0x3de222b9	0.11041779
178	0xbe466c14	-0.19377166
179	0x3e20196d	0.15634699
180	0xbdc95835	-0.09831277
181	0xbd7636a0	-0.06011069
182	0xbe39d211	-0.1814654
183	0xbd9f13d2	-0.07767452
184	0xbe499e78	-0.19689357
185	0x3e7b942f	0.24568246
186	0xbe398c98	-0.18120039
187	0xbde16325	-0.110052384
188	0xbdb9c69a	-0.09071083
189	0xbe457745	-0.19283779
190	0x3d39dc1e	0.045375936
191	0xbd95abb4	-0.073081404
192	0xbe36241e	-0.17787215
193	0x3d60b90c	0.054863974
194	0x3e3a907f	0.18219183
195	0xbe672284	-0.2257176
196	0x3ddde0d5	0.10833899
197	0x3dd206db	0.10255214
198	0x3e61895e	0.22025058
199	0xbe527952	-0.20554093
200	0x3db82208	0.08990866
201	0xbe78b0b1	-0.24286152
202	0x3e8b7c86	0.2724344
203	0xbe067412	-0.13130215
204	0x3db083b3	0.0861887
205	0x3d63bc02	0.05559922
206	0x3d4d5d41	0.050137762
207	0x3c08ad59	0.008342111
208	0x3c62ca1a	0.01384213
209	0x3e438499	0.1909355
210	0x3c22660e	0.009912027
211	0x3dcb78a2	0.09935118
212	0xbe472573	-0.1944788
213	0x3e19a344	0.15003687
214	0x3e44c012	0.19213894
215	0x3e3197ad	0.17343016
216	0x3e1cf06d	0.1532609
217	0xbdfa3eb3	-0.1221899
218	0xbdf4cde3	-0.11953332
219	0x3e411053	0.18853883
220	0xbe033bb0	-0.12815738
221	0x3e8a8735	0.2705628
222	0xbe6e0a2b	-0.23246066
223	0xbe257608	-0.16158307
224	0x3d9bb567	0.07602959
225	0xbe1eef33	-0.15520935
226	0xbd9e66c0	-0.07734442
227	0x3dda5807	0.10661321
228	0x3e60bbdb	0.21946661
229	0x3e37cc27	0.17948972
230	0xbd8b2231	-0.06793631
231	0xbe70b21f	-0.23505448
232	0x3e8bca9e	0.27303022
233	0xbddbd5c1	-0.1073413
234	0xbdb07ad8	-0.086171806
235	0x3cf07716	0.02935366
236	0xbe67a5a7	-0.22621785
237	0x3dedf6c4	0.116193324
238	0x3e87742c	0.2645582
239	0xbe7e64f5	-0.248432
240	0xbe89dcf3	-0.26926383
241	0x3c42e312	0.011894958
242	0x3e86f41b	0.26358113
243	0xbd588edb	-0.052870613
244	0x3c2d1dba	0.010566169
245	0x3e16a782	0.14712337
246	0xbe9529ac	-0.29133356
247	0xbe2c1029	-0.1680304
248	0xbe610492	-0.219744
249	0x3e0e5871	0.13900925
250	0x3e7fb463	0.24971156
251	0xbe07899c	-0.13236088
252	0xbd4aab8b	-0.049480002
253	0x3e2bb79b	0.16769259
254	0xbca0d8f7	-0.019634707
255	0xbe1e1e1b	-0.15441172

mean.fc0.bias f4 [128]
0	0x3def1823	0.116745256
1	0x3df8593e	0.121263966
2	0xbdd99a40	-0.10625124
3	0x3e43c08d	0.19116421
4	0xbe6db72a	-0.23214403
5	0xbe3e4329	-0.18580307
6	0x3d83f221	0.06442667
7	0x3e2c8db8	0.16850936
8	0x3d9cc068	0.07653886
9	0xbe1ad781	-0.1512127
10	0x3ce83674	0.028346278
11	0xbb36ef04	-0.002791346
12	0xbe0d6242	-0.13807014
13	0x3b666761	0.0035156833
14	0x3e307516	0.17232165
15	0xbdb64995	-0.089007534
16	0xbd053536	-0.03252145
17	0xbd9375b2	-0.07200183
18	0xbe8633f1	-0.26211503
19	0xbe46f6bc	-0.19430059
20	0x3e5086d7	0.20363937
21	0x3e3d0b4d	0.18461342
22	0x3e7bddb6	0.24596295
23	0xbd25009a	-0.040283777
24	0xbc3b3dcc	-0.011428308
25	0xbe08dc1d	-0.13365217
26	0x3d6b2012	0.05740363
27	0xbe6aab40	-0.22916889
28	0x3e97dc53	0.29660282
29	0xbe45f807	-0.19332896
30	0xbe98e6d6	-0.29863614
31	0xbd97bec9	-0.07409436
32	0x3e970645	0.2949697
33	0x3e758c74	0.2397936
34	0x3b614cdc	0.0034378087
35	0x3df776e7	0.12083226
36	0x3e02f82b	0.12789981
37	0x3e66ccd1	0.22539069
38	0x3d9d6df7	0.0768699
39	0xbe61f55f	-0.22066258
40	0x3dfca084	0.123353034
41	0x3e1fb02e	0.15594551
42	0x3d007bb9	0.03136799
43	0x3eb9fc13	0.3632513
44	0xbd93affa	-0.07211299
45	0xbe0066ce	-0.12539217
46	0xbd739e87	-0.059477355
47	0xbca15a4e	-0.019696381
48	0x3de8fc0b	0.113761984
49	0xbddbe5bc	-0.10737178
50	0x3d68d391	0.05684239
51	0x3d70a54c	0.05875139
52	0x3dc1523e	0.094395146
53	0xbe1966f0	-0.14980674
54	0x3e8c93e3	0.2745658
55	0xbdd10237	-0.102055006
56	0xbe0e83ca	-0.13917461
57	0x3eb6eaa4	0.35725892
58	0xbdcaa3f8	-0.09894556
59	0x3e8c3025	0.2738048
60	0x3e97cc0c	0.29647863
61	0xbe162b5f	-0.14664982
62	0xbdcf55a7	-0.10123759
63	0x3ccf8f0d	0.025336767
64	0x3e195dad	0.1497714
65	0x3e8d8715	0.27642122
66	0xbdd2ac8c	-0.10286817
67	0xbe0163ea	-0.1263577
68	0x3d068a8e	0.03284698
69	0xbe2626f4	-0.16225797
70	0x3eb15ff3	0.34643516
71	0xbcad09ab	-0.021122774
72	0x3cdb0935	0.026737789
73	0xbe78b0bd	-0.2428617
74	0x3dfde61c	0.123974055
75	0x3d1f0de1	0.038831595
76	0x3e100cc0	0.14067364
77	0xbd59cb69	-0.053172503
78	0x3d280de7	0.041028883
79	0x3e6dd5be	0.23226067
80	0x3d390800	0.045173645
81	0xbc493cee	-0.012282593
82	0x3dc0c53a	0.09412618
83	0xbe60927d	-0.21930881
84	0x3c751fff	0.014961242
85	0xbded869d	-0.11597941
86	0xbd743f3f	-0.05963063
87	0x3dce06cf	0.100598924
88	0xbb886cd0	-0.004163362
89	0x3e88a177	0.26685688
90	0x3dd1711d	0.10226653
91	0xbd85568d	-0.06510649
92	0xbe0182d6	-0.12647566
93	0xbe4c4060	-0.19946432
94	0xbdb20fb1	-0.08694399
95	0xbe719df2	-0.23595408
96	0xbc713716	-0.014722606
97	0x3e81333c	0.252344
98	0x3e9d994f	0.30781028
99	0xbdbb3f0f	-0.09142887
100	0x3c71ef0f	0.014766469
101	0x3e8b6d87	0.27232
102	0xbc24bcea	-0.010054806
103	0xbe823a03	-0.25434884
104	0x3d81448b	0.06311902
105	0x3d9a0ead	0.075223304
106	0xbd2a03df	-0.041507598
107	0xbc13dedb	-0.009025301
108	0xbe1896b8	-0.14901245
109	0x3ddbf8db	0.10740825
110	0xbd4806c3	-0.048834573
111	0x3d7bf1c9	0.06150988
112	0x3eac9ecd	0.33714905
113	0xbe1828db	-0.14859335
114	0xbe003174	-0.12518865
115	0xbd0c950d	-0.034321833
116	0x3df1501b	0.11782857
117	0x3e069c4d	0.13145562
118	0xbd78bb7c	-0.060725674
119	0x3e20d641	0.15706731
120	0xbdc2bdb0	-0.09508836
121	0x3df23a9b	0.11827584
122	0x3e4f988c	0.20273036
123	0xbe6c1a35	-0.23056872
124	0x3e22489c	0.15848011
125	0xbdb2423d	-0.0870404
126	0x3ecfb924	0.4057094
127	0xbe8bf7c8	-0.2733748

mean.fc1.weight f4 [6, 128]
0	0x3d47eb11	0.04880816
1	0x3da7804b	0.08178767
2	0x3da23ebc	0.07922122
3	0x3d87c337	0.06629031
4	0xbd18e5fe	-0.037328713
5	0xbd0fce9a	-0.03510914
6	0xbb89f1bc	-0.004209725
7	0x3df4aeeb	0.119474255
8	0xbcef8dbe	-0.029242393
9	0x3c6d13dc	0.014470067
10	0x3d8ba38e	0.06818305
11	0x3d848822	0.06471278
12	0xbd0a6d67	-0.03379574
13	0x3d2b1c19	0.041774843
14	0x3d8784b3	0.06617107
15	0x3dbba289	0.091618605
16	0x3d0b0528	0.033940464
17	0x3d6d3642	0.057913072
18	0x3cbaaa8a	0.022786397
19	0x3dd9d3ac	0.10636076
20	0x3d5e1739	0.054221366
21	0xbc876865	-0.016529271
22	0x3d4b3d95	0.049619276
23	0xbcb81bb7	-0.022474153
24	0x3d365bcf	0.04452115
25	0x3db70189	0.0893584
26	0xbcedbebf	-0.029021619
27	0xbd347d80	-0.044065
28	0x3d1e0c85	0.03858616
29	0x3c7b062e	0.015321298
30	0x39e1e095	0.0004308267
31	0x3dd82e90	0.10555756
32	0x3d990456	0.0747153
33	0xbb4edf9d	-0.003156639
34	0x3d8fedeb	0.07027801
35	0x3d52d042	0.05146814
36	0xbc560e03	-0.013064864
37	0x3d7f940f	0.06239706
38	0xbd3fa7b8	-0.04679081
39	0x3d28e89a	0.04123745
40	0x3dacf9a6	0.08446054
41	0xbd239228	-0.039934307
42	0x3d5d21a9	0.05398718
43	0x3e170e42	0.14751533
44	0x3d891b71	0.06694687
45	0xbc928273	-0.017884469
46	0x3d96f3f9	0.07370753
47	0xbd8ae03d	-0.06781051
48	0x3d430044	0.047607675
49	0x3dbf4866	0.09339981
50	0x3dafb75e	0.085798964
51	0x3cb9c510	0.022676975
52	0x3d677830	0.056511104
53	0x3d5f2223	0.054475915
54	0x3c71ae56	0.014751038
55	0x3d202ce9	0.03910533
56	0xbca2b0fe	-0.019859787
57	0x3ddf1156	0.108919784
58	0x3d828b48	0.06374222
59	0x3bb73a05	0.0055916333
60	0x3cc337ef	0.023830382
61	0xbcc99e3f	-0.02461159
62	0x3d1f3d75	0.03887697
63	0x3da05836	0.07829325
64	0x3de562f7	0.11200517
65	0xbcbe08e1	-0.023197593
66	0xbd5a6b14	-0.053324774
67	0x3cfcd4bd	0.03086316
68	0x3dd1faf1	0.102529414
69	0x3d8bd62d	0.0682796
70	0x3dc74331	0.097296126
71	0x3ccbc867	0.024875833
72	0x3d045c4a	0.032314576
73	0x3dbe48b3	0.0929121
74	0x3ddec263	0.1087692
75	0x3ca43455	0.020044485
76	0xbc2784fe	-0.010224579
77	0xbd116617	-0.03549775
78	0xba26333e	-0.0006340033
79	0x3d1f2dd5	0.03886207
80	0x3dec40ee	0.11535822
81	0xbd62ed53	-0.05540211
82	0x3dc42895	0.09578053
83	0xbcd781ee	-0.026307072
84	0x3d898033	0.06713905
85	0xbbf2e55d	-0.007412596
86	0x3dcf0b00	0.1010952
87	0xbc25f27f	-0.010128616
88	0xbd00907e	-0.0313878
89	0x3d95962e	0.07304035
90	0x3d956f71	0.072966464
91	0xbb54ff07	-0.003250064
92	0x3db1e42c	0.086860985
93	0x3cfe718a	0.031059999
94	0xbcc937e0	-0.024562776
95	0x3d52d3ef	0.051471647
96	0x3c8ace60	0.01694411
97	0x3da723b7	0.08161109
98	0x3dbd1a89	0.09233577
99	0x3da66418	0.0812456
100	0x3db6e3e4	0.089301854
101	0xbd272ba3	-0.0408131
102	0xbd7d75d3	-0.061879944
103	0x3d37664a	0.044775285
104	0x3db92fa6	0.09042291
105	0xbc585194	-0.0132030435
106	0x3dfba13b	0.12286612
107	0x3c4ed220	0.01262334
108	0xbd039963	-0.032128703
109	0x3db59157	0.08865612
110	0x3de50aca	0.111836985
111	0x3d49e7e2	0.049293406
112	0xba950a6d	-0.0011370905
113	0x3d2abbd8	0.041683048
114	0xbd3be13c	-0.045869097
115	0x3dd728da	0.10505839
116	0x3dc17a07	0.09447103
117	0x3c967a7f	0.018368958
118	0xbd002eee	-0.031294756
119	0x3df06de8	0.11739713
120	0xbc95d774	-0.018291213
121	0xbca407db	-0.020023277
122	0x3ddb4a08	0.1070748
123	0xbb8f2377	-0.0043682414
124	0x3da4eb08	0.08052641
125	0x3dac1ae4	0.084035665
126	0x3d048c4f	0.03236037
127	0x3c20a8b4	0.009805847
128	0x3e2cc27c	0.16871065
129	0x3d803b88	0.06261355
130	0x3db26b3f	0.08711862
131	0x3d1d6710	0.038428366
132	0xbc769846	-0.015050953
133	0x3d8fd914	0.07023826
134	0x3c35ef61	0.011104436
135	0x3cb21022	0.021736208
136	0xba9abcae	-0.0011805499
137	0x3df6c834	0.120499045
138	0x3a532368	0.0008054287
139	0x3db44827	0.088028245
140	0x3d815195	0.06314389
141	0x3e0a62f2	0.13514307
142	0x3e0f1e4a	0.13976398
143	0x3951d41e	0.00020010813
144	0x3dc11702	0.094282165
145	0x3c84c9de	0.016209539
146	0x3d5d6dd7	0.05405983
147	0x3cd0a221	0.025467934
148	0x3cca561e	0.024699267
149	0x3da4472a	0.08021386
150	0x3c5e41a0	0.013565451
151	0x3e154d1b	0.14580195
152	0x3dcbd79f	0.09953236
153	0x3d1b42eb	0.037905615
154	0x3b938365	0.0045017474
155	0xbc997840	-0.018734097
156	0x3d09055d	0.03345238
157	0x3a909c10	0.0011032838
158	0x3d8b46a7	0.06800585
159	0x3da48dab	0.080348335
160	0x3e09807b	0.13427918
161	0x3d995af8	0.07488054
162	0x3d25a0fd	0.040436734
163	0x3d1f06fe	0.038825028
164	0x3d5b6308	0.05356124
165	0x3df0ee44	0.117641956
166	0xbccf5ef8	-0.02531384
167	0xbd01491b	-0.03156386
168	0x3dd36094	0.10321155
169	0x3cddfbc8	0.027097598
170	0x3d755dec	0.059904024
171	0x3d2ab6bc	0.041678175
172	0x392c0bb9	0.00016407565
173	0xbbf132f1	-0.007360809
174	0xbc003e24	-0.0078273155
175	0xbc8a2fe1	-0.016868534
176	0x3d26ab0e	0.040690474
177	0x3e07e95f	0.13272618
178	0x3c51f454	0.0128146
179	0x3e035e0b	0.12828843
180	0xbc3861ff	-0.011253833
181	0x3d8ace6b	0.06777652
182	0x3d278b7b	0.040904503
183	0xbc3d040e	-0.011536611
184	0x3d74d1f4	0.05977054
185	0x3e1034ae	0.14082596
186	0x3c909670	0.01764986
187	0x3e12bc32	0.14329603
188	0x3d4986c1	0.049200777
189	0x3d11d69b	0.035605054
190	0x3dda5c2b	0.10662111
191	0x3dff87bd	0.12477062
192	0x3e0b7417	0.13618504
193	0x3e0ce67a	0.13759795
194	0xbcba83ea	-0.02276798
195	0x3d26316a	0.04057447
196	0x3d98d1be	0.0746188
197	0x3c5efc52	0.013609963
198	0x3dd4da04	0.10393146
199	0x3d39994d	0.045312215
200	0x3d345d7b	0.044034462
201	0x3c8e36a3	0.017360037
202	0xb8012c2f	-3.0797146e-05
203	0x3db9c687	0.09071069
204	0xba142604	-0.0005651417
205	0x3d2e8e89	0.0426164
206	0x3d8d25b6	0.068919584
207	0x3ddd03bd	0.10791729
208	0x3c99dd05	0.018782148
209	0x3e0c5608	0.13704693
210	0x3926882b	0.0001588172
211	0xbb2ec043	-0.002666489
212	0x3dbcb885	0.09214882
213	0x3c0f313a	0.008739764
214	0x3de26cbb	0.11055895
215	0x3db11b54	0.086477906
216	0x3c0cc73e	0.008592425
217	0x3d80eb21	0.06294847
218	0x3c91c98c	0.0177963
219	0x3d5685d9	0.05237374
220	0x3d9f525b	0.0777938
221	0x3d3b27a0	0.045692086
222	0xba0472f3	-0.0005052529
223	0xbcb77909	-0.022396581
224	0x3c7f3c87	0.015578396
225	0x3da2fd9f	0.07958531
226	0x3dc88b75	0.09792224
227	0x3c969722	0.018382613
228	0x3d38f3df	0.04515445
229	0x3d6f87d5	0.05847915
230	0x3dfd01e3	0.123538755
231	0xbcda8db4	-0.026678897
232	0x3d02722b	0.03184716
233	0x3d692bba	0.056926467
234	0x3d283713	0.041068148
235	0x3bec4b8c	0.0072111543
236	0x3ddc9f15	0.1077253
237	0x3cf18e52	0.029486809
238	0x3d874aa1	0.06606031
239	0x3b18b819	0.002330309
240	0x3e1373c4	0.1439963
241	0x3a307667	0.00067315105
242	0x3d2a0ea8	0.041517884
243	0x3df292e3	0.11844423
244	0x3e08f3f9	0.13374318
245	0xbc15d8af	-0.0091459
246	0x3dd6f1c2	0.104953304
247	0x3c478ae5	0.012179111
248	0x3d1c1ad8	0.038111538
249	0x3dd3aab8	0.103352964
250	0x3d6a05db	0.05713449
251	0x3dd6cca3	0.1048825
252	0x3d3e4516	0.046452604
253	0x3977bc27	0.00023625848
254	0x3d9e0d3b	0.07717367
255	0x3db4ee0e	0.08834468

mean.fc1.bias f4 [6]
0	0x3dda7df5	0.10668556
1	0xbbaabccf	-0.005210496
2	0x39b30625	0.0003414612
3	0x3dbe998a	0.09306629
4	0x3d9c740b	0.07639321
5	0x3e001bc9	0.12510599
