cs294-homework/hw3/data/ac_ac_100_1_HumanoidStandup-v2_13-04-2019_14-03-02/1/vars_policy.pkl (torch_old, 202856 bytes, 5 tensors)

std f4 [1, 17]
0	0x3f66f454	0.90216565
1	0x3f890bef	1.0706767
2	0x3f7772c1	0.96659476
3	0x3f7d61dc	0.98977447
4	0x3f92bb3b	1.1463388
5	0x3f5438a5	0.8289893
6	0x3f822ff9	1.017089
7	0x3f91ad63	1.1381038
8	0x3f8fc42b	1.1231741
9	0x3f639902	0.88905346
10	0x3f6ed2f9	0.9329067
11	0x3f8fca6a	1.1233647
12	0x3f8e42f4	1.1114182
13	0x3f8328f3	1.0246872
14	0x3f8b7531	1.0895139
15	0x3f8b4552	1.088053
16	0x3f79f953	0.97646064

mean.fc0.weight f4 [128, 376]
0	0x3d2f00af	0.04272526
1	0xbcd1fc9b	-0.025633147
2	0x3b650274	0.003494409
3	0x3d190b23	0.037364136
4	0xbd642d67	-0.05570736
5	0x3d062aa4	0.03275551
6	0x3caec125	0.021332333
7	0x3d044591	0.032292906
8	0xbd01f979	-0.031732056
9	0xbaaf2846	-0.0013363443
10	0x3c3a706a	0.011379341
11	0xbc6e39a0	-0.014540106
12	0x3ce0afc5	0.027427563
13	0xbda136e3	-0.07871797
14	0xbc040a27	-0.008059061
15	0xbdd48fc8	-0.103789866
16	0x3b54696d	0.0032411471
17	0x3c44fc4b	0.012023042
18	0x3b985966	0.004649329
19	0x3beee5d1	0.00729058
20	0xbc6ab8e0	-0.014326304
21	0xbd77755e	-0.060414664
22	0xbc6c181b	-0.014410044
23	0xbc421ae7	-0.011847234
24	0xbbf6ce17	-0.007531892
25	0x3d283417	0.0410653
26	0x3d3e0693	0.04639299
27	0xbd45b67c	-0.048269734
28	0x3c788da3	0.015170488
29	0x3cb97fa5	0.022643873
30	0x3d61f149	0.055161748
31	0xbc7f8fb0	-0.015598223
32	0x3ccff238	0.025384054
33	0xbdbc01e3	-0.09180047
34	0xbd4e4cd9	-0.050366256
35	0x3c7f3c44	0.015578333
36	0x3d02488b	0.031807464
37	0xbc238195	-0.009979625
38	0xbb4569e2	-0.0030122926
39	0xbc9ce5e3	-0.019152587
40	0x3d13affe	0.03605651
41	0x3c1f8494	0.009736199
42	0x3d9902bf	0.07471227
43	0x3d068c0b	0.0328484
44	0xbd0bcb65	-0.03412952
45	0x3cd927ec	0.026508294
46	0xbce04173	-0.027374959
47	0x3c788038	0.0151672885
48	0xbc73fb8c	-0.014891516
49	0xbbb944e0	-0.0056539625
50	0xbd4b1432	-0.049579807
51	0xbcc96d12	-0.024588142
52	0x3ce53f28	0.027984217
53	0xbc4d62c4	-0.012535755
54	0x3d52668e	0.051367335
55	0x3d20afbd	0.039230097
56	0x3c6a0c92	0.014285224
57	0xbccc7cbb	-0.02496182
58	0x3da77e9c	0.08178446
59	0x3d2a4b5e	0.041575782
60	0xbd2c6737	-0.04209062
61	0x3ce3e13b	0.02781736
62	0x3cbaf960	0.02282399
63	0x3d90dfc9	0.07073934
64	0xbcc574bb	-0.024103513
65	0xbc3b0e5b	-0.011416997
66	0x3b7d3514	0.0038636373
67	0x3c937831	0.018001648
68	0x3bf95624	0.0076091457
69	0xbd8509e9	-0.06496031
70	0xbc3915f3	-0.011296737
71	0xbd204c8b	-0.039135497
72	0x3bc28422	0.0059361616
73	0x3d317d8a	0.043332614
74	0x3cb2139e	0.02173787
75	0x3c6a8f13	0.014316338
76	0x3c0ba56f	0.008523329
77	0x3c70dbae	0.014700813
78	0xbd6ec60a	-0.058294334
79	0xbb9e49fb	-0.0048305965
80	0xbb28c1af	-0.002575021
81	0xbd8d2b21	-0.06892992
82	0x3c87aed1	0.016562851
83	0xbd523e38	-0.051328868
84	0x3d0fbeb7	0.03509399
85	0x3b1f79f8	0.0024334174
86	0xbd3ef7b7	-0.046622958
87	0x3d60f8b2	0.054924674
88	0x3d000607	0.031255748
89	0xbd26e93f	-0.040749785
90	0xbca0d64c	-0.019633435
91	0xbd0f2ba0	-0.034953713
92	0xba4a5108	-0.0007717763
93	0xbc4dae75	-0.012553801
94	0xbcf38161	-0.029724779
95	0x3ad2793e	0.0016057862
96	0x3bcc3777	0.006232198
97	0x3cae3f12	0.021270309
98	0x3d0cceab	0.03437678
99	0xbda9dec2	-0.08294441
100	0x3d18b26b	0.037279528
101	0x3c7794f0	0.015111193
102	0xbaa5631d	-0.0012618039
103	0x3c1e720d	0.0096707465
104	0xbce9b9ef	-0.028531043
105	0xbcab0a23	-0.020878857
106	0x3d20ab2c	0.039225742
107	0x3c61aa4a	0.01377351
108	0x3db92605	0.09040455
109	0xbd5bea42	-0.053690203
110	0x3c493131	0.012279795
111	0x3d828b4f	0.06374227
112	0x3c88c4fa	0.016695488
113	0xbd411021	-0.047134522
114	0x3c385cde	0.01125261
115	0x3cb2600d	0.021774316
116	0x3d487f31	0.048949424
117	0x3d03a9ba	0.032144286
118	0xbd2264f1	-0.039647046
119	0xbcc2db78	-0.023786291
120	0xbd2735cb	-0.040822785
121	0x3b5771ff	0.0032874343
122	0x3d9fc0be	0.078004345
123	0xbd7996e2	-0.06093491
124	0x3d043ea5	0.032286305
125	0xbd4a510c	-0.0493937
126	0xbce5394b	-0.027981421
127	0xbbb9d4a3	-0.0056711
128	0x3ccef7ec	0.025264703
129	0x3d15e15b	0.03659187
130	0xbcd45753	-0.025920546
131	0x3c54cafc	0.012987848
132	0x3da248cd	0.07924042
133	0x3d31bd16	0.043393217
134	0x3d1753c8	0.036945134
135	0x3c7c5b49	0.015402623
136	0x3d5dbed5	0.05413707
137	0x3c9bc237	0.019013507
138	0xbd222ca8	-0.03959337
139	0xbd512737	-0.05106279
140	0x3bacc70c	0.0052727517
141	0xbb488700	-0.0030598044
142	0x3b929c18	0.004474174
143	0x3c8dd21d	0.017312104
144	0x3caa1c16	0.020765346
145	0xbc8475ef	-0.016169516
146	0x3d3c9d77	0.046048608
147	0x3d06d330	0.032916248
148	0x3d3d5cd7	0.046231117
149	0x3d6ebb0d	0.058283854
150	0xbd0493ed	-0.032367636
151	0x3d4509df	0.048105117
152	0xbc5d13f6	-0.013493529
153	0x3ccd08d2	0.02502862
154	0xbd33b353	-0.04387219
155	0xbc7000fb	-0.014648671
156	0xbbcdf525	-0.006285327
157	0x3b792cef	0.0038021167
158	0x3d64da61	0.055872325
159	0xbc051662	-0.008123012
160	0xbce1a371	-0.027543755
161	0x3ca30e2a	0.019904215
162	0x3c0eaaeb	0.008707742
163	0x3d29918c	0.04139857
164	0xbcb34203	-0.021882063
165	0x3cb8d550	0.022562653
166	0xbcde826a	-0.027161796
167	0xbca67b12	-0.020322356
168	0x3c330de8	0.0109286085
169	0xbc3dea46	-0.0115915
170	0x3a12b57a	0.00055965
171	0x3c54d86d	0.012991053
172	0x3ad6eb9f	0.0016397125
173	0x3d021c13	0.031765055
174	0x3d6683cf	0.056278046
175	0x3daf0f2f	0.08547818
176	0x3c99cf24	0.01877553
177	0xbbb13bb7	-0.00540873
178	0x3c439336	0.011936953
179	0x3ca3389a	0.01992445
180	0x3d89ff32	0.06738128
181	0xbb1a36bc	-0.002353116
182	0xbd3a6707	-0.04550841
183	0xbd210d54	-0.03931935
184	0xbce92124	-0.028458185
185	0x3d421aec	0.047388956
186	0xbd369dfe	-0.044584267
187	0xbd24a772	-0.04019875
188	0xbae58740	-0.0017511621
189	0xbce46fa7	-0.027885271
190	0x3c972a2c	0.018452726
191	0xbc343293	-0.010998386
192	0x3d0af105	0.03392126
193	0xbcc8cb01	-0.024510862
194	0x3cec69c0	0.02885902
195	0xbd7757c4	-0.060386434
196	0x3c9973a2	0.018731896
197	0x3d804fd6	0.062652275
198	0x3dc2ce22	0.09511973
199	0x3cb24787	0.021762623
200	0x3d703be8	0.05865088
201	0xbd056892	-0.03257043
202	0xbcc8bb70	-0.02450344
203	0x3ba5fe9f	0.0050657536
204	0x3e0af57b	0.13570206
205	0x3c3a5447	0.011372632
206	0xbcc780dc	-0.024353437
207	0xbcaf40d2	-0.021393213
208	0xbd7e3e74	-0.06207128
209	0xbc5886c9	-0.013215729
210	0x3ca98faf	0.020698396
211	0x3d51934f	0.051165875
212	0xbc83ec87	-0.016103996
213	0x3cb1659c	0.021654896
214	0xbd2a4aeb	-0.041575354
215	0x3c9b0d4d	0.01892724
216	0x3d82370b	0.06358155
217	0xbcca8538	-0.024721727
218	0xbd10fde8	-0.035398394
219	0x3cadde3a	0.02122413
220	0xbd969944	-0.07353452
221	0x3cbd1c09	0.023084657
222	0xbc776bbf	-0.015101372
223	0xbcc33e87	-0.023833526
224	0x3c12531f	0.00893095
225	0xbd7b165d	-0.061300624
226	0xbd3cb3c8	-0.04606989
227	0x3c9a953c	0.018869989
228	0x3c7345a3	0.014848146
229	0x3daac0fb	0.08337589
230	0xbcb37363	-0.021905607
231	0xbda5ff0c	-0.08105287
232	0xbc438dd6	-0.011935672
233	0xbdeb0d37	-0.1147713
234	0x3d060a86	0.03272488
235	0x3cc434c7	0.023950947
236	0x3b608419	0.0034258424
237	0x3d02e730	0.03195876
238	0x3dc313a5	0.09525231
239	0xbe142dcf	-0.144706
240	0x3c3dcab5	0.011583974
241	0x3be0d939	0.0068618325
242	0x3d7a7a6c	0.061151907
243	0xbb60e2f1	-0.0034314955
244	0x3d16a71e	0.03678047
245	0x3ca684d3	0.020327007
246	0xbdd0a982	-0.10188581
247	0xbd7fc072	-0.06243939
248	0xbda7482c	-0.081680626
249	0x3c311fe4	0.010810826
250	0x3d9184da	0.071054175
251	0xbba2bf78	-0.0049666725
252	0x3b19f7a4	0.0023493553
253	0x3d497d9f	0.049192067
254	0x3d8555d5	0.06510512
255	0x3c7859d1	0.015158133

mean.fc0.bias f4 [128]
0	0xbd1602e6	-0.036623858
1	0x3decf67b	0.1157045
2	0xbcc6b963	-0.024258321
3	0xbd77d5fb	-0.060506802
4	0x3cc701b4	0.024292804
5	0xbc6ae4c9	-0.014336773
6	0xbb1d50a4	-0.0024004364
7	0xbd6a81fc	-0.05725287
8	0xbcedce77	-0.029029114
9	0xbc814854	-0.015781559
10	0xbd7f462c	-0.06232278
11	0x3cd87399	0.026422309
12	0x3da479ba	0.0803103
13	0x3c365995	0.011129756
14	0x3d33350f	0.043751772
15	0x3c72cef7	0.014819852
16	0xbd1b7ba9	-0.03795973
17	0xbccc4534	-0.024935342
18	0x3b1a9edf	0.002359323
19	0xbd4924f7	-0.049107518
20	0xbd88af5c	-0.06674072
21	0x3da60a17	0.08107393
22	0xba96c9b1	-0.00115042
23	0xbd2d91df	-0.04237544
24	0xbdb96c64	-0.09053877
25	0x3c1802dc	0.0092780255
26	0xbc47c727	-0.012193478
27	0xbc8943ca	-0.016755957
28	0xbd4acd70	-0.049512327
29	0xbc373091	-0.011181013
30	0x3d0b77a1	0.034049634
31	0x3ba5cda3	0.005059914
32	0xbda7d17f	-0.08194255
33	0x3c289aae	0.010290785
34	0xbc85a178	-0.016312346
35	0x3d923697	0.071393184
36	0x3cee5d74	0.029097296
37	0xbd81680b	-0.06318673
38	0xbc742dd1	-0.014903502
39	0x3c2b7659	0.010465228
40	0xbd933ce2	-0.07189347
41	0xbdaa2910	-0.08308613
42	0xbc5dc23d	-0.01353508
43	0x3da6d569	0.081461735
44	0x3dbd633f	0.09247445
45	0xbcc5bb6e	-0.024137225
46	0x3a5c1b0c	0.0008396364
47	0x3daaa757	0.08332699
48	0x3ca9e839	0.020740615
49	0x3e056013	0.1302493
50	0xbd2df3d5	-0.042468864
51	0x3cfa4810	0.03055194
52	0xbd40ed61	-0.047101382
53	0xbd017c17	-0.031612482
54	0xbc7c5292	-0.015400546
55	0xbd626727	-0.055274155
56	0xbcbc6b29	-0.023000317
57	0xbc40cd20	-0.011767656
58	0xbda9b279	-0.08285994
59	0xbbebff1e	-0.007202043
60	0x3da7b390	0.08188546
61	0xbd5e3507	-0.05424979
62	0xbd94facd	-0.07274399
63	0xbd163e0c	-0.036680266
64	0x3cba15f9	0.022715556
65	0xbd1f3646	-0.03887012
66	0xbd8dc242	-0.06921817
67	0x3d2c1b0f	0.042017993
68	0xbcb1f671	-0.021723958
69	0xbdba3ad9	-0.090932555
70	0x3ce7ebdd	0.02831071
71	0xbcb00729	-0.02148779
72	0x3d046659	0.03232417
73	0x3c36fb58	0.011168323
74	0xbc72d0a7	-0.014820254
75	0x3d52915a	0.05140815
76	0xbd2c1c38	-0.0420191
77	0xbba4783a	-0.005019215
78	0xbd9e204f	-0.07721006
79	0x3d3c8a0e	0.046030097
80	0x3d89abc3	0.06722214
81	0x3b5c1bc7	0.0033585893
82	0xbd5795bc	-0.052633032
83	0xbd157eea	-0.036497988
84	0x3d333251	0.043749157
85	0x3da2852e	0.07935558
86	0x3d495486	0.049152873
87	0x3d532eb1	0.0515582
88	0x3caea89c	0.021320634
89	0xbe0c62f7	-0.13709627
90	0x3d6861f5	0.056734044
91	0xbd66a609	-0.056310687
92	0x3d0e19b3	0.034692477
93	0x3c3cc984	0.011522654
94	0xbd4eb5bb	-0.05046628
95	0x3afcb7c8	0.0019280845
96	0xbd08a552	-0.033360787
97	0x3d2b1b5f	0.04177415
98	0x3da35f32	0.079771414
99	0x3d370ba3	0.044688832
100	0x3dc3d871	0.09562767
101	0xbd26698d	-0.040628005
102	0x3d722123	0.059113633
103	0xbd865be8	-0.065604985
104	0xbd869fe9	-0.06573469
105	0xbcb0442c	-0.021516882
106	0xbc63a394	-0.0138939805
107	0xbd02b5e8	-0.03191176
108	0xbd5dac9c	-0.05411969
109	0xbd10ba28	-0.035333782
110	0xbd056ad6	-0.03257259
111	0xba2363ce	-0.00062328286
112	0x3d1a5bed	0.037685324
113	0xbbd054e8	-0.006357778
114	0xbca2c168	-0.019867614
115	0xbd80bcd9	-0.0628602
116	0xbd12c8e4	-0.035836115
117	0x3a35e30d	0.0006938435
118	0x3da7c0f0	0.08191097
119	0x3d52fe3a	0.05151198
120	0xbd3fc01e	-0.046814077
121	0x3ae40fe0	0.0017399751
122	0x3bcee587	0.006313983
123	0xbbc45e93	-0.0059927194
124	0xbd5d2a6d	-0.05399554
125	0xbd89ae50	-0.067227006
126	0xbd4b0921	-0.049569253
127	0x3c657728	0.01400546

mean.fc1.weight f4 [17, 128]
0	0xbd978f0f	-0.07400333
1	0xbd0eba45	-0.03484561
2	0x3c742ce9	0.014903286
3	0xbdb6dbe2	-0.08928658
4	0xbcc4540d	-0.02396586
5	0x3d195f17	0.0374442
6	0xbd9cd86e	-0.07658468
7	0xbd71fa30	-0.059076488
8	0x3d461e48	0.048368722
9	0xbd8421b4	-0.06451741
10	0x3da0d8d5	0.078538574
11	0xbc9ba510	-0.018999606
12	0x3dd44814	0.1036531
13	0x3d5640b5	0.052307803
14	0x3d6ac7e3	0.057319533
15	0xbe12806e	-0.14306805
16	0x3d7d5af1	0.061854307
17	0xbdf93176	-0.12167637
18	0x3c878ff5	0.016548136
19	0xbdea2632	-0.114330664
20	0xbb7bf74d	-0.0038446963
21	0x3cd075d0	0.025446802
22	0xbbf0f46c	-0.007353356
23	0xbca365f2	-0.019946072
24	0x3d1f49ba	0.03888867
25	0x3d191d50	0.03738147
26	0x3cc57ae3	0.024106449
27	0xbd2be962	-0.041970618
28	0xbd7a44a1	-0.061100606
29	0x3ced2405	0.02894784
30	0x3dc7073c	0.09718177
31	0x3c1adeb7	0.009452513
32	0xbb6785ef	-0.0035327633
33	0xbcef8fb8	-0.029243335
34	0x3dbe8fea	0.09304793
35	0xbdb0879b	-0.08619615
36	0xbdb43342	-0.08798839
37	0xbd42cd65	-0.04755916
38	0xbc9edf9b	-0.019393733
39	0x3dd80c70	0.10549247
40	0xbbd915aa	-0.006624897
41	0xbdb01eda	-0.085996345
42	0xbd82f27a	-0.06393905
43	0xbb109ab9	-0.0022064878
44	0xbc4b07fd	-0.012392041
45	0xbdc81687	-0.09769922
46	0xbdeeab90	-0.11653817
47	0x3d856c3e	0.06514786
48	0xbcc67334	-0.024224855
49	0x3ddb78c5	0.10716394
50	0x3c5e28ff	0.013559579
51	0xbd926cf7	-0.0714969
52	0x3d5611fb	0.05226324
53	0x3dbb274e	0.09138356
54	0x3c816958	0.015797302
55	0x3caa5fe3	0.020797675
56	0x3cde25c9	0.027117627
57	0x3d8a238d	0.06745062
58	0xbd8baa89	-0.068196364
59	0xbd865f73	-0.06561174
60	0x3d487ed5	0.04894908
61	0x3d499b68	0.049220473
62	0xbc530da5	-0.012881671
63	0x3cb77702	0.022395615
64	0xbd73a14c	-0.059479997
65	0xbd01dfc1	-0.03170753
66	0x3d898b52	0.06716026
67	0x3c3d1392	0.01154031
68	0x3dc065b1	0.09394396
69	0xbbc461fa	-0.005993125
70	0xbb9e890f	-0.004838116
71	0xbd3772c0	-0.04478717
72	0xbd16a427	-0.03677764
73	0x3aa4277a	0.0012523972
74	0xbb67962f	-0.003533732
75	0x3d309b76	0.04311701
76	0xbcb18199	-0.021668242
77	0x3cc07304	0.023492344
78	0x3cf0a3cd	0.029374981
79	0x3d91dd13	0.07122245
80	0x3d7fe49e	0.062473886
81	0xbdce650b	-0.10077866
82	0xbd102880	-0.035194874
83	0x3c5fb1bd	0.013653216
84	0x3df12384	0.11774352
85	0x3d81cc61	0.0633781
86	0x3d6087bc	0.054816946
87	0x3d84c908	0.06483656
88	0xbd058e2d	-0.032606293
89	0xbd91b277	-0.071141176
90	0x3db62be3	0.088950895
91	0xbda09e19	-0.07842655
92	0x3dcd49e8	0.10023862
93	0xbdb5a014	-0.08868423
94	0x3af4062d	0.0018617563
95	0xbc7f8fe8	-0.015598275
96	0xbcad4a94	-0.021153726
97	0x3d47cf17	0.04878148
98	0x3dfb0399	0.122565456
99	0xbd003176	-0.03129717
100	0x3dcb709e	0.099335894
101	0x3d6d36ae	0.057913475
102	0x3dde1496	0.1084377
103	0xbd762d16	-0.06010159
104	0xbd464b14	-0.048411444
105	0xbcc2d5f5	-0.023783663
106	0x3b864a71	0.0040982296
107	0x3d912541	0.07087184
108	0xbdff3d78	-0.12462896
109	0x3d4e4c5a	0.050365783
110	0xbbc280f8	-0.0059357844
111	0x3e182362	0.14857247
112	0x3d0c6d71	0.03428406
113	0x3bf35376	0.007425721
114	0xbd41b3b1	-0.047290508
115	0x3cf0dbfb	0.02940177
116	0xbdb1a8a2	-0.08674742
117	0x3d7083c1	0.0587194
118	0xbd32d06c	-0.043655798
119	0x3be2a451	0.0069165607
120	0xbc21b322	-0.009869369
121	0xbc9b83ab	-0.018983683
122	0x3d52aa21	0.05143178
123	0xbd24bf0d	-0.040221263
124	0x3baba45c	0.005238099
125	0x3bfcc943	0.007714422
126	0x3d4bc450	0.049747765
127	0xbcab5fc8	-0.020919695
128	0xbdfeb6a9	-0.124371834
129	0xbd84ba52	-0.0648085
130	0xbd3e3dd6	-0.04644569
131	0xbd86f622	-0.06589915
132	0xbcb53ab9	-0.022122728
133	0xbaed2fa7	-0.0018095867
134	0xbd2a4e2c	-0.041578457
135	0xbd387433	-0.04503269
136	0x3ce2a3fb	0.027666083
137	0x3b8da0ba	0.0043221386
138	0x3b0aafb0	0.0021161847
139	0xbd28673a	-0.04111407
140	0xbbd82799	-0.0065965173
141	0x3dc590bb	0.09646746
142	0x3b9d68ad	0.004803738
143	0xbbb7e8a3	-0.0056124493
144	0x3b8b38cc	0.004248714
145	0xbcf57208	-0.0299616
146	0xbd922370	-0.071356654
147	0xbd73975d	-0.059470523
148	0x3d989c0d	0.07451639
149	0xbd71ecc7	-0.0590637
150	0x3dc81685	0.0976992
151	0x3d984af3	0.074361704
152	0x3d484e62	0.048902877
153	0x3d04180a	0.032249488
154	0xbcbe9375	-0.023263672
155	0xbd31eead	-0.04344051
156	0xbd060b50	-0.032725632
157	0xbc847086	-0.016166937
158	0x3c91bf91	0.017791541
159	0xbd2cb0c3	-0.04216076
160	0xbcadbaf6	-0.021207314
161	0x3d0485d4	0.03235419
162	0x3b704746	0.0036663576
163	0xbd8256cf	-0.06364214
164	0xbbaf3a25	-0.0053475075
165	0x3afee57e	0.0019447056
166	0x3cf3e81d	0.029773766
167	0x3bb6d843	0.0055799796
168	0x3cab15a1	0.020884337
169	0x3db1a9dc	0.08674976
170	0xbda08369	-0.078375645
171	0xbe07a5c6	-0.13246831
172	0xbe0a5180	-0.13507652
173	0xbc4edf87	-0.012626535
174	0xbdcb284c	-0.099197954
175	0x3c7bd008	0.015369423
176	0x3c6dacf4	0.014506567
177	0xbdce8013	-0.10083022
178	0xbd9c073a	-0.07618566
179	0x3d064ab3	0.032786082
180	0xbe081fc2	-0.13293365
181	0xbd62676d	-0.055274416
182	0xbdf01e8c	-0.11724576
183	0xbcc421be	-0.02394187
184	0xbced4f5e	-0.02896851
185	0x3c3333a7	0.010937608
186	0xbd9711b9	-0.07376427
187	0xbd10a2f7	-0.035311665
188	0xbdbc7bdc	-0.09203312
189	0x3cff2fad	0.031150663
190	0x3d642677	0.055700745
191	0xbdb326ea	-0.08747657
192	0x3dbea5ea	0.09308989
193	0x3c981310	0.018563777
194	0x3ca303ce	0.019899275
195	0xbd884883	-0.066544555
196	0x3d3701fd	0.04467963
197	0x3d1c3c52	0.038143463
198	0xbde034a7	-0.10947543
199	0x3dc7f1f9	0.097629495
200	0xbdab2de6	-0.08358364
201	0xbc70a7ee	-0.014688475
202	0xbd4b55f3	-0.049642514
203	0x3db8621b	0.09003087
204	0xbdf3ca68	-0.1190384
205	0xbdca1320	-0.09866929
206	0xbc47563e	-0.012166558
207	0xbdc0a1e5	-0.09405879
208	0x3d1b82fd	0.037966717
209	0xbc130289	-0.008972772
210	0x3b6201f2	0.0034486023
211	0x3c1cfbef	0.00958155
212	0xbded0528	-0.11573249
213	0xbbddc45a	-0.0067677917
214	0xbcedb5c5	-0.029017339
215	0xbd29b5ea	-0.041433252
216	0xbd283ec0	-0.041075468
217	0x3d3605f3	0.044439267
218	0xbe155b19	-0.14585532
219	0xbdb10334	-0.08643189
220	0xbd98ad36	-0.07454912
221	0x3cba5ed2	0.022750292
222	0x3d10f7e0	0.035392642
223	0x39e9e639	0.00044612752
224	0xbcb2b4e5	-0.021814773
225	0xbe1e71e7	-0.15473138
226	0xbdada605	-0.08478931
227	0xbde36b35	-0.111044325
228	0xbd4915f6	-0.04909321
229	0xbbfd03df	-0.0077214087
230	0xbd9cd3a4	-0.07657555
231	0x3da30eec	0.079618305
232	0xbd7aa1df	-0.06118953
233	0xbd42e3a8	-0.04758039
234	0x3d755a67	0.059900668
235	0xb88d0d46	-6.725876e-05
236	0x3c8f9e08	0.01753141
237	0x3c827458	0.015924618
238	0x3c9b2db1	0.018942686
239	0xbd81262b	-0.06306108
240	0x3dbeed66	0.09322624
241	0xbe188c7c	-0.1489734
242	0x3c0253fc	0.007954594
243	0xbd7dfce9	-0.062008772
244	0x3d9f00be	0.077638134
245	0xbdafb009	-0.08578498
246	0x3e048132	0.12939909
247	0x3d3f71dd	0.046739448
248	0x3d10f8e9	0.03539363
249	0x3d7467b9	0.05966923
250	0x3d3d2393	0.046176504
251	0xbe073bba	-0.13206378
252	0x3d01630c	0.0315886
253	0x3d254632	0.040350147
254	0x3d61eaec	0.05515568
255	0x3d62bd87	0.05535653

mean.fc1.bias f4 [17]
0	0xbd8111b3	-0.06302204
1	0xbd6e0509	-0.05811027
2	0x3d812ef3	0.06307783
3	0xbccfda9b	-0.025372794
4	0xbcce193e	-0.02515852
5	0x3ba5cf9b	0.005060149
6	0xbce6961b	-0.028147748
7	0x3dce4439	0.10071606
8	0xba73dd62	-0.0009302703
9	0xbdb5cd1b	-0.088770114
10	0x3dc5a91c	0.09651396
11	0xbd349f4b	-0.044097226
12	0xbc0008f7	-0.007814637
13	0x3d87c306	0.06628995
14	0xbceaecf5	-0.028677443
15	0x3cec6a65	0.028859327
16	0xbcfa0788	-0.03052117
