cs294-homework/hw3/data/ac_ac_10_10_InvertedPendulum-v2_13-04-2019_13-40-39/1/vars_policy.pkl (torch_old, 4069 bytes, 3 tensors)

mean.fc0.weight f4 [128, 4]
00000000: ca66 b33e 999b b63e 966f 87be ddd6 d03e
00000010: df8f d2be 2ea6 4d3f 0657 bc3d 6dce 423e
00000020: 1f43 3d3c e052 803e dab6 843d 08f8 da3d
00000030: 30ff 3a3e e486 47be 3051 15bd 4060 38bd
00000040: 5530 5d3e 4f6b 0f3f 7b1b 263f 33bc 093e
00000050: 4ba5 50be 02b5 77be 6b1b 0cbe 2faf 22be
00000060: f5f2 4cbe 5212 1abd 979d af3e f274 5f3e
00000070: 01cc 09bf 10ce 613f ab6d 843e 6b47 f43e
00000080: c1c7 3f3e fb56 32bf 6971 09bf e9db 96be
00000090: db1e 143f b5e2 22bf 141d a03e 9bc8 afbe
000000a0: 1889 1e3f 58ce 36bf 4499 af3e 62bc b6bd
000000b0: 63d7 98be 185d 553f a85d 92be fb45 953e
000000c0: a273 9fbe 4a4d 32bf 9ffa 28bf 1636 b1be
000000d0: 2203 5f3e 82b6 a13d e61d 123f 77cc c03e
000000e0: c947 7c3d 04d5 5bbf 8a5d 943e edb3 803d
000000f0: 3c51 65be 3adc 433f cffc ea3e bfe9 893e
00000100: 0823 6dbe 223f 03be 3217 0e3d 4c3a e63c
00000110: 42f2 c5be 9df3 92be c0b5 503e 5e97 4bbd
00000120: 6e8d ba3e 066a d7be 1c5f 133e ba0b 07bc
00000130: a976 863d 4883 473f 1ded bdbe f4a9 aa3e
00000140: 559c 77be 8731 6abf feb1 d33c f086 32be
00000150: c15e 253e 0d60 283e 61c4 cebe 4258 fe3e
00000160: 7619 9a3d 2e65 64be 41fa 033e 1d76 f8be
00000170: 37ca e43c fd10 7bbe 0156 99be 761e eebe
00000180: 7f49 813d 1d89 26be 417a 9abe 0015 6cbd
00000190: bcde e63e f982 ee3e 3e76 e73e 0dd1 013e
000001a0: 533b afbe 2514 b5be d646 d33e 8bfd b93d
000001b0: c225 e63e 04ca cf3e fac7 833e 6e5c 8a3e
000001c0: 5078 fd3e d198 2bbf 01b7 243e 2efc 943e
000001d0: 6488 d83e fc64 8abe 6bd5 62be 03e6 fbbe
000001e0: 31dd f1be 3cfc 80bd dec0 d13e b899 7ebe
000001f0: 9127 3a3e dea9 6abf 0d83 14bf bb5a f8bc
00000200: 7eff 893e 1e85 c63e e594 6ebe 187c 103d
00000210: 6490 813e f52d 733f 168f c33e 8091 bf3e
00000220: ab24 db3e b61c fbbe bf41 67be 57ed 11bf
00000230: 212c a1be 8f4e d53e 5cdc 79be af34 963e
00000240: 2835 113d bb0e e1bd 2644 333e 28be f33d
00000250: f732 b93e ee38 2e3f 54e1 dfbc e540 b23e
00000260: 4aa4 63be ba77 b0be 4173 0bbf 4496 73be
00000270: 0bb1 72be c753 3cbf 671b d43e 959d 92be
00000280: e1df e4be dd7f 403f 81b2 733e a005 c53e
00000290: 963d 92be 8753 893e 40e5 5fbe 5403 4ebd
000002a0: 4192 a1be da9c 97be f9b0 aabd 4459 133e
000002b0: 18fe 063e 79f3 203f 9494 2d3f 3a5b 9f3e
000002c0: 0122 693e 9491 0b3f 70c7 7dbe 2f51 f53e
000002d0: 4fd3 88be 525b 30bf 10a6 08bf 202a 86bd
000002e0: 30ed bfbe 7ca9 483e 2f04 03bf 069c c6be
000002f0: f6fb 1b3e ad20 5cbf 8651 a23e 6b85 a8be
00000300: 8d6a 26be 8e9e e7be 6b8b be3e 6762 ebbe
00000310: d87c b83e f800 0bbe 313a fe3e 486d e4be
00000320: 6814 a63d ba75 13bf af4d c73e 4f69 11be
00000330: 8e97 d23e 3983 d0be 5319 1c3e b176 dabd
00000340: 70ef 463e 0dde 0b3f fd68 203e 2383 0b3d
00000350: 32d4 efbe 6a96 703f 67ee 203f eec5 803e
00000360: 268c da3e dcc6 a4be 59be febd 50f2 bc3e
00000370: fa7f f1be 6ceb d5bd 13b5 babe 48aa e7be
00000380: 8d87 0f3e 991d 043e 6ecd 35bd 2beb ff3e
00000390: 76a5 103f 412c 33bd 39a1 01be c67c fdbe
000003a0: e3b8 b73e c116 aa3e e0fd 3dbe d187 693e
000003b0: 250f e4be a7bc b03e 436b 643e 6175 a0be
000003c0: 1c93 febe a3fe aabe f1de bf3e 99d5 19be
000003d0: a165 e4be 2bbd 18bf 6b26 f3be 66e9 0cbf
000003e0: e357 8ebe d4bd d53c 23ec d13e 8a02 8cbe
000003f0: 3831 01bd c052 943e 313a 81bc aee6 33be
0.3503936 0.35665587 -0.2645232 0.40788928 -0.4112539 0.80331695 0.09196286 0.19024058
0.011551647 0.2506323 0.06480189 0.106918395 0.18261409 -0.1948505 -0.03645438 -0.045013666
0.21600468 0.56023115 0.6488568 0.13450699 -0.20375554 -0.24190143 -0.13682334 -0.1588714
-0.20014556 -0.037615128 0.3429992 0.21821955 -0.5382691 0.8820505 0.2586492 0.47710738
0.18728544 -0.6966397 -0.53688675 -0.29464653 0.5785958 -0.6362718 0.31272185 -0.34332737
0.6192794 -0.71408606 0.3429662 -0.0892265 -0.29851827 0.83345175 -0.2858708 0.29154953
-0.31142908 -0.69649184 -0.6600742 -0.34611577 0.21778539 0.07896139 0.5707687 0.37655994
0.061591897 -0.8587191 0.28977615 0.06284318 -0.2239427 0.76507914 0.45896003 0.26936147
-0.23157895 -0.12817052 0.03469009 0.02810397 -0.3866139 -0.28701487 0.20381832 -0.049704902
0.36436027 -0.42073077 0.1439175 -0.008242542 0.065656014 0.77934694 -0.37094966 0.3333279
-0.2418073 -0.9148182 0.02584171 -0.17434287 0.16149427 0.1644289 -0.403842 0.4967671
0.075243875 -0.22304222 0.12888433 -0.48527613 0.027928455 -0.245182 -0.29948428 -0.46507615
0.063128464 -0.16263242 -0.30171397 -0.057637215 0.45091808 0.465843 0.452074 0.12677403
-0.34224948 -0.35366932 0.4126498 0.090815626 0.44950682 0.40583813 0.25738508 0.27023643
0.49505854 -0.67030054 0.16085435 0.29098648 0.42291558 -0.2703017 -0.22151725 -0.49198923
-0.47239068 -0.0629811 0.40967458 -0.24863327 0.18179156 -0.91665447 -0.5801247 -0.030316701
0.26952738 0.38773435 -0.23298986 0.035274595 0.25305474 0.94992 0.38195103 0.37415695
0.42801413 -0.49045342 -0.22583674 -0.57002777 -0.3147898 0.41661498 -0.24400467 0.2933707
0.035451084 -0.10989138 0.17506465 0.11901504 0.36171696 0.6805562 -0.027329125 0.34815136
-0.2223064 -0.34466344 -0.5447274 -0.2378779 -0.23700349 -0.73565334 0.41427156 -0.2863585
-0.44702056 0.75195104 0.23798563 0.38480854 -0.2856261 0.2682154 -0.21864796 -0.050296143
-0.31556895 -0.29611856 -0.08334536 0.14389521 0.13182867 0.6287151 0.6780484 0.31124288
0.22766878 0.5451901 -0.2478311 0.479135 -0.26723716 -0.68889344 -0.5337839 -0.065510035
-0.37485647 0.19595903 -0.5117826 -0.3879091 0.15232834 -0.8598736 0.31702822 -0.3291429
-0.16251583 -0.45238155 0.37215742 -0.45973513 0.36032748 -0.13574588 0.49653772 -0.44614625
0.08109361 -0.5760151 0.38926455 -0.14200328 0.41131252 -0.40725115 0.15244035 -0.1066717
0.19427276 0.546357 0.1566505 0.03406061 -0.4684158 0.93979514 0.62863773 0.25151008
0.4268505 -0.32182968 -0.1243865 0.3690362 -0.4716795 -0.10445294 -0.36466274 -0.45247102
0.14016552 0.12901916 -0.044385366 0.49984106 0.56502473 -0.043743376 -0.12659158 -0.49509257
0.35883245 0.33220485 -0.18553877 0.22805716 -0.44542804 0.3451893 0.22306542 -0.31339553
-0.4972161 -0.33397397 0.37474778 -0.15022887 -0.44608787 -0.5966365 -0.47490248 -0.5504364
-0.27801427 0.026091494 0.4100047 -0.27345687 -0.03154108 0.28969383 -0.015774818 -0.17568466

mean.fc0.bias f4 [128]
00000000: 478c 52be b682 ba3e 595f 4d3e fc92 fbbe
00000010: e217 15be 8323 c6be 9b07 a8be f4f8 823e
00000020: 63f7 c5be ded4 54be 394f a33e e24e fbbb
00000030: 9f1f da3d 6d39 edbe 1499 963e c66f ed3d
00000040: 2305 73be 9a41 c0be 4559 233e a861 593e
00000050: c90a a13e 5758 0f3e dcd4 b0bc db08 87be
00000060: 9901 793e b831 033e a0a1 cdbe 02cc f53e
00000070: 3f02 a03e 6c33 89be 57d2 a5be 4d84 d53d
00000080: 1584 bbbe ac13 9b3e 2ec7 32be 766c c63e
00000090: fdcf 94be 9677 833e 3ae8 95bb 3f76 7bbd
000000a0: 864d a13e 1869 b9be f162 abbe 5776 1a3e
000000b0: 2471 c63e bff7 293d 3cec aabe efd4 8cbd
000000c0: 8f3f 19be 4a21 11be c611 02be 1aaf 1ebe
000000d0: c21d 5f3e 2791 463e a091 d4be 4e4a 13be
000000e0: 3df2 053e 345b 7c3d b9a6 8c3e b7c9 31be
000000f0: 1aac 81be 72f1 c9bd 32bb 39be 2b4e 3fbe
00000100: ea5c 0a3e 3131 1abd a117 113e 82ad 81bd
00000110: 3e24 933e 4f37 513e f2e0 663b 406d dc3e
00000120: a273 063d 3315 8bbe 1f46 a3ba 200c c73e
00000130: eafb 173e e823 a73e 0618 4e3d 0a0b d63e
00000140: 6775 313e 3679 c83d a813 ea3d 2884 123f
00000150: 3fbd 423d abb7 03be 076d 043e df55 133f
00000160: ff2a 943e c966 7d3c be0a ce3e 0dc7 0c3e
00000170: 4c3d 84be 48fa e8be ce43 6c3e a9af cf3e
00000180: 21a5 9fbe 3bbd 213e 3137 423c a138 ab3d
00000190: 2917 babd 315a 983e a29c 383e 3c9e 763e
000001a0: 3823 893e d756 b33e 1330 ba3e bc09 ac3d
000001b0: d93a 24bd 342b 723d dc93 ce3e 1032 463e
000001c0: 6a7a 763e 1ee3 0e3f 7fb7 a73d e78f 823e
000001d0: 3ac1 773c 4351 c43e 2e34 e43e 31f5 f1bd
000001e0: 77ec 2c3d 9635 a6be 93e4 8bbe 591d a0bd
000001f0: 1bff 34be dd21 d93d fddc 53be 1923 45be
-0.20561324 0.3642785 0.20055903 -0.49135578 -0.14559892 -0.38698968 -0.32818303 0.2558056
-0.38665304 -0.20784327 0.3189638 -0.0076693157 0.106505625 -0.46332875 0.29413664 0.11593585
-0.23732428 -0.3755005 0.15952022 0.21228659 0.3145354 0.13998543 -0.021585874 -0.26373944
0.24317016 0.12811935 -0.40162373 0.48007208 0.31251714 -0.26797044 -0.3238704 0.10425625
-0.36624208 0.30288446 -0.17458794 0.38754624 -0.29064932 0.25677174 -0.0045748027 -0.061392065
0.31504458 -0.36212993 -0.33473924 0.15084206 0.38758194 0.041496035 -0.33383358 -0.06876551
-0.14965652 -0.14172855 -0.12702093 -0.15496483 0.21788695 0.19391309 -0.41517353 -0.14383814
0.13080688 0.061610416 0.2747095 -0.17362104 -0.25326616 -0.09860505 -0.18137816 -0.18682162
0.13512006 -0.03764457 0.1416917 -0.06331922 0.28738588 0.20431255 0.0035229293 0.430521
0.03282512 -0.2716461 -0.0012456811 0.38876438 0.14842191 0.32644582 0.05031588 0.41805297
0.17329942 0.09788744 0.114295304 0.57232904 0.04754376 -0.12863033 0.12932216 0.57552904
0.28939053 0.0154664 0.4024257 0.13747807 -0.25828016 -0.4550345 0.2307274 0.40563706
-0.3118067 0.15794842 0.011853979 0.083604105 -0.09086449 0.2975631 0.180285 0.24083799
0.26784682 0.3502719 0.36364803 0.08400294 -0.040095184 0.059123233 0.40347183 0.19355035
0.24070135 0.55815303 0.08189296 0.25500414 0.015121752 0.38343248 0.4457106 -0.11814345
0.042217698 -0.32462758 -0.27322826 -0.078180976 -0.1767544 0.10602162 -0.20689769 -0.1925167

mean.fc1.weight f4 [1, 128]
00000000: 3569 363e cf33 113e 765b f93c 8f24 933d
00000010: c229 7b3e 008e 95bc 70dd 21bc 36ec 8e3e
00000020: ae6c 18be 7eb8 42be 8a3c 3dbe 54f8 613e
00000030: 244d bcbe bb83 c43c 216c 6bbe 8339 1c3e
00000040: 1e51 99b9 1b2b 603c e103 8abd fba1 2b3e
00000050: 98bf 98be 7399 013e 2e98 c1bd 99d4 1bbe
00000060: 4331 0cbd 4174 603e c0da 6cba b490 913d
00000070: c924 94bd 39b8 60be 9ba1 32bd 6cd0 9dbe
00000080: 07cf 6fbb 06c8 8b3e 758e 20be 7094 ca3d
00000090: 7458 dabb b9ec c03d 7d35 a7bd 6f44 45be
000000a0: 320d 833e 489b be3d fa90 06ba 71f1 343e
000000b0: 6d8d f03d 4319 a0be 1306 00bd 67ec 82be
000000c0: f569 0ebe 59df 08be e1ec 7cbd d44e 4dbe
000000d0: e84d 083e 5fef 813e ba2b f33c 4f68 74be
000000e0: 4ff1 b43d a1df b4bd b12b e23d c5d3 bbbb
000000f0: a9c8 1bbe c0eb 9fbe 1294 8ebd 3c7d d4bc
00000100: 6c2c 94bd 8d0f 143e b8eb 8abd d5e3 663e
00000110: a05a 483d e908 31be 8129 773e 9fa0 ee3c
00000120: bda2 b23b 750f 1abe c70f b2be d395 11be
00000130: ba1d 173d 5f92 883c 0115 d8bd 3c5f 05bc
00000140: 155d 59bd c6bb cc3d 6c39 9b3e 3236 6ebe
00000150: 5456 c0bd 157b fb3d 7a39 46be c08e 28be
00000160: b6ea 1e3e cc19 d9bd 848c 39bd 4a36 59bd
00000170: 7b28 de3d 2594 73bd ae32 6d3e 55b1 b3bd
00000180: 5cb1 093d 25f1 c33b 824b 92bd eee1 743e
00000190: 717f 21be 2a17 8fbe a099 253e 3289 0c3d
000001a0: 813b 31be 40dd 863e f2c2 09bb defa 33bd
000001b0: d5b3 cdbc a56b 793e 6798 523e e7af 6e3e
000001c0: 819c b73d ef67 aebd 460e 4abe 1990 f5bc
000001d0: afc6 543e 9516 bfbd 9726 463e 94d2 ecbd
000001e0: d06e 01be 8b5f 1f3d 5491 2fbb 1ec9 0dbe
000001f0: c344 213d e2c1 a3be 17e4 67be d740 4b3e
0.17813571 0.1417992 0.03043912 0.071847074 0.24527648 -0.018256187 -0.009879455 0.2791459
-0.14885208 -0.1901569 -0.18480125 0.22067386 -0.36777604 0.023988595 -0.22990467 0.15256314
-0.0002924287 0.013682152 -0.06739021 0.1676101 -0.29833674 0.12656192 -0.09452854 -0.15217818
-0.034226667 0.21919347 -0.0009035282 0.07107678 -0.07233579 -0.21945275 -0.04361115 -0.30823076
-0.0036591904 0.27301043 -0.15679343 0.098915935 -0.0066633765 0.09420151 -0.08164499 -0.19264387
0.25596005 0.09306961 -0.00051332975 0.17670228 0.11745725 -0.31269273 -0.031255793 -0.25570986
-0.13907607 -0.1336645 -0.061749343 -0.20049602 0.13310969 0.25377938 0.029683936 -0.23867916
0.088350885 -0.08831716 0.1104349 -0.005732032 -0.15213265 -0.3123455 -0.06961836 -0.025938623
-0.07235035 0.14459057 -0.06783241 0.22547849 0.04891455 -0.17288555 0.24136926 0.029129324
0.005451529 -0.15044959 -0.34777662 -0.1421731 0.036893584 0.016671358 -0.10550881 -0.008140381
-0.053067286 0.099967524 0.30317247 -0.23262861 -0.09391466 0.122793354 -0.19357863 -0.16460705
0.15519223 -0.106006235 -0.04530002 -0.05303029 0.10847565 -0.059467454 0.23163864 -0.08774058
0.03361641 0.0059796744 -0.07143308 0.2391431 -0.15771271 -0.2794736 0.16171885 0.034310527
-0.17307855 0.26340675 -0.0021020737 -0.043940417 -0.025110165 0.2435747 0.2056595 0.23309289
0.089653976 -0.085159175 -0.19732007 -0.029975938 0.20778917 -0.09330479 0.19350658 -0.11563602
-0.12639928 0.038909476 -0.0026789503 -0.13846251 0.039372217 -0.31983858 -0.22645603 0.19848953
