cs294-homework/hw2/data/no_rtg_na_Walker2d-v2_11-04-2019_10-11-59/1/vars_policy.pkl (torch_old, 13326 bytes, 5 tensors)

std f4 [1, 6]
1.0095206 0.8979498 0.9496931 0.9812707 0.9644189 0.9071787
00000000: f937 813f 0ae0 653f 161f 733f 8e34 7b3f
00000010: 28e4 763f dd3c 683f

mean.fc0.weight f4 [128, 17]
0.11702516 -0.09145437 0.027886849 0.043271195 -0.24527442 0.10626284 0.029470256 0.11114414
-0.0291088 -0.0069227433 0.0027065128 -0.016759379 0.04619461 -0.15676366 -0.05990964 -0.05373372
0.016583746 -0.057705548 0.13287729 0.06358375 -0.09828428 -0.13188808 -0.06843949 -0.047122978
-0.07375292 0.001578996 0.1273527 0.21903266 -0.1452896 0.14300409 0.17095542 0.2693759
0.18078639 -0.12609063 -0.20066877 -0.12613966 0.22546393 -0.08429371 0.13363199 -0.034505486
0.18118086 0.008323596 0.18467636 -0.053714477 -0.09724711 0.192119 -0.14842553 0.10293093
-0.07014134 -0.049150545 -0.17985336 -0.16474308 0.1215394 -0.03510808 0.262435 0.18861572
-0.039340645 -0.24491367 0.107858166 0.057232887 -0.20999643 0.20225412 0.18832979 0.19224173
-0.06430097 -0.006233124 0.03460646 0.068010576 -0.24445134 -0.17855231 0.11689987 -0.029131858
0.18214175 -0.06561515 0.056280844 0.019124907 0.1576995 0.09424079 -0.19018492 0.13141555
-0.17706585 -0.14522678 0.0008296788 0.004788076 0.24823037 -0.13517582 -0.18604839 0.20017499
-0.0051452992 0.12044715 0.101929285 -0.21180037 0.020223074 0.073477596 -0.04364813 -0.03612138
0.112111226 0.099615246 -0.15722837 -0.006196286 0.274776 -0.10078644 0.13121897 0.010897885
-0.20724429 -0.20326146 0.26980826 -0.057973694 0.17314021 0.06884695 0.040238567 0.14791113
0.2464756 -0.15328099 0.09798155 0.14822794 0.15321334 0.2168588 -0.21499549 -0.14193606
-0.15626334 -0.007934663 0.28152734 -0.07816779 0.09325434 -0.14606602 -0.16107284 -0.027531441
0.13688524 0.2244445 -0.14272523 0.016115475 0.28438303 0.14920205 0.14808264 0.17922443
0.16018999 0.053229444 -0.19689088 -0.14860421 -0.13407499 -0.11735721 -0.084301166 0.029878655
0.07939972 -0.10762298 0.067713924 0.035864525 0.14617388 0.10666056 -0.102463916 0.2812253
-0.05754421 0.046604536 -0.31553113 -0.15331693 -0.22368607 -0.022467002 0.05680407 -0.050521687
-0.16420788 0.04376661 0.17488815 0.17695424 -0.048932426 0.007554543 -0.10508488 -0.033608768
-0.17497188 -0.22359236 -0.11893476 0.12792486 0.092887595 0.10127537 0.2136823 0.23950309
0.085947655 0.021203725 -0.19020453 0.09465189 -0.07757254 -0.024761377 -0.25728953 -0.015830133
-0.17304574 0.20201348 -0.08318692 -0.18086424 -0.05669755 -0.11791542 0.06769801 -0.080745846
-0.09897171 -0.06391848 0.19499062 -0.19880304 0.07925916 0.13452986 0.2770326 -0.25227973
0.0881689 -0.21321985 0.20027941 -0.014886749 0.18017942 -0.0121245785 -0.060403544 -0.015875833
0.086320914 0.07653306 -0.012242871 0.099322855 -0.17652754 0.22503269 0.24821739 0.24508046
0.15823281 -0.19774766 -0.13087812 0.34870723 -0.19151154 0.16423419 -0.1800651 -0.05780931
0.09833131 -0.21417578 0.02577058 0.17121321 0.178576 0.16375814 -0.038228873 -0.23778589
0.24413568 -0.10701649 -0.11525874 0.015549368 -0.14407225 0.10886177 0.21264987 -0.17190646
-0.19966523 -0.10816595 0.095611475 -0.018651033 -0.16210423 0.02067379 -0.27335793 -0.10310998
-0.22529718 0.17288463 0.15927026 -0.20129049 -0.03946621 0.12920733 -0.083187625 -0.14193463
00000000: e3aa ef3d 6e4c bbbd f672 e43c 233d 313d
00000010: 3829 7bbe 55a0 d93d 9b6b f13c 8a9f e33d
00000020: 9475 eebc 2ed8 e2bb c05f 313b f74a 89bc
00000030: 8f36 3d3d a786 20be d063 75bd e417 5cbd
00000040: a3da 873c a75c 6cbd fc10 083e 3238 823d
00000050: 4549 c9bd ab0d 07be 012a 8cbd 0604 41bd
00000060: c50b 97bd 50f6 ce3a bf68 023e 194a 603e
00000070: ccc6 14be aa6f 123e f00e 2f3e a3eb 893e
00000080: 1120 393e e71d 01be 1d7c 4dbe c12a 01be
00000090: 04e0 663e 2ea2 acbd d3d6 083e a055 0dbd
000000a0: 7a87 393e b15f 083c cd1b 3d3e b603 5cbd
000000b0: 7e29 c7bd d8ba 443e ddfc 17be 74cd d23d
000000c0: 43a6 8fbd 1552 49bd 7b2b 38be 69b2 28be
000000d0: a6e9 f83d 7dcd 0fbd e15d 863e 7b24 413e
000000e0: a823 21bd a6ca 7abe bee4 dc3d 086d 6a3d
000000f0: 4e09 57be b41b 4f3e 86d9 403e 04db 443e
00000100: 3ab0 83bd 3c3f ccbb 81bf 0d3d 2149 8b3d
00000110: 7451 7abe 6bd6 36be 3369 ef3d efa5 eebc
00000120: 5e83 3a3e 3c61 86bd be86 663d d6ab 9c3c
00000130: fa7b 213e 5101 c13d d6bf 42be cc91 063e
00000140: c050 35be 54b6 14be cd7e 593a 4be5 9c3b
00000150: 1a30 7e3e 886b 0abe 7883 3ebe acfa 4c3e
00000160: e699 a8bb ffac f63d 4dc0 d03d 32e2 58be
00000170: dcaa a53c 6c7b 963d 62c8 32bd 03f4 13bd
00000180: 929a e53d 1403 cc3d 7900 21be 370a cbbb
00000190: 71af 8c3e 1f69 cebd 445e 063e 0b8d 323c
000001a0: d937 54be c623 50be 4f24 8a3e d375 6dbd
000001b0: ab4b 313e a1ff 8c3d 32d1 243d 0476 173e
000001c0: 1a64 7c3e b1f5 1cbe 8daa c83d 11c9 173e
000001d0: f5e3 1c3e 3c10 5e3e c727 5cbe b057 11be
000001e0: 7f03 20be 6400 02bc 5a24 903e 6f16 a0bd
000001f0: 22fc be3d 5592 15be 47f0 24be 9e89 e1bc
00000200: a52b 0c3e c7d4 653e 9026 12be 9a04 843c
00000210: a79a 913e 6cc8 183e faa2 173e 9c86 373e
00000220: d808 243e 1e07 5a3d c39d 49be b42b 18be
00000230: f44a 09be fa58 f0bd 17a6 acbd 15c4 f43c
00000240: 529c a23d 7069 dcbd 99ad 8a3d aee6 123d
00000250: 9bae 153e da70 da3d 9ad8 d1bd c3fc 8f3e
00000260: 7ab3 6bbd 66e4 3e3d 4c8d a1be 1dff 1cbe
00000270: f60d 65be b80c b8bc 62ab 683d d4ef 4ebd
00000280: 1c26 28be 9e44 333d e115 333e 7e33 353e
00000290: 5e6d 48bd 1a8c f73b be36 d7bd 59a9 09bd
000002a0: d42b 33be 65f5 64be 1194 f3bd bcfe 023e
000002b0: da3b be3d 7669 cf3d 88cf 5a3e 4c40 753e
000002c0: 5305 b03d 6fb3 ad3c fac4 42be dad8 c13d
000002d0: 5ade 9ebd 5fd8 cabc 74bb 83be 32ae 81bc
000002e0: e732 31be 9fdc 4e3e e75d aabd 7a34 39be
000002f0: b13b 68bd a47d f1bd 41a5 8a3d 145e a5bd
00000300: aeb1 cabd b1e7 82bd 9fab 473e 0693 4bbe
00000310: a052 a23d 32c2 093e 38d7 8d3e cf2a 81be
00000320: e591 b43d 4e56 5abe 0c16 4d3e 8de7 73bc
00000330: f480 383e 2ba6 46bc b569 77bd 090e 82bc
00000340: 05c9 b03d 5dbd 9c3d 5396 48bc c869 cb3d
00000350: a3c3 34be f86e 663e b32c 7e3e 5ff6 7a3e
00000360: c807 223e 5d7e 4abe ea04 06be c189 b23e
00000370: 9a1b 44be 022d 283e fc62 38be 74c9 6cbd
00000380: ed61 c93d e550 5bbe d31c d33c 8452 2f3e
00000390: a0dc 363e 37b0 273e e195 1cbd 257e 73be
000003a0: b4fe 793e 762b dbbd c60c ecbd c7c2 7e3c
000003b0: ad87 13be ebf2 de3d e3c0 593e 3f08 30be
000003c0: 0b75 4cbe 1c86 ddbd f3cf c33d 0dca 98bc
000003d0: a7fe 25be 145c a93c 92f5 8bbe 532b d3bd
000003e0: 4eb4 66be ab08 313e be17 233e 181f 4ebe
000003f0: 52a7 21bd ed4e 043e 465e aabd 5057 11be

mean.fc0.bias f4 [128]
-0.041865695 0.07006883 -0.07179095 0.14609486 -0.21850045 -0.12567487 0.07793536 0.1809417
0.003445622 -0.14328493 -0.04793968 -0.07142509 -0.047564965 -0.09898088 0.111744575 -0.08135314
-0.15193689 -0.117348485 -0.20137702 -0.24117139 0.07870268 0.23841655 0.21850353 0.009167518
-0.10574902 -0.115658134 0.07189171 -0.22596811 0.13215978 -0.1307892 -0.30802065 -0.09215725
0.23694432 0.2216586 0.08026423 0.063611515 0.16083074 0.12046678 0.08358823 -0.22948536
0.04831432 0.26393315 -0.20788519 0.19865441 -0.06506151 -0.12442022 -0.0027156032 -0.038803205
0.10518723 -0.13820915 0.093295455 0.012949749 -0.020799559 -0.30266064 0.25058362 -0.12357645
-0.1468707 0.28497142 -0.04385092 0.17263088 0.1420611 -0.16132039 -0.1902954 -0.121835366
0.0801312 0.20187287 -0.0065204725 -0.12977797 -0.10236507 -0.18413146 0.29907846 -0.08431776
-0.20874281 -0.2108953 0.1098072 0.110249974 0.15257141 -0.062344298 -0.09685286 0.103811644
-0.029466504 -0.08677605 0.083243355 -0.20171706 -0.20827219 -0.08914682 -0.16686933 0.044794716
0.056255016 0.20608114 0.026248032 -0.011085961 -0.21191059 -0.10513702 -0.07157736 -0.17902745
0.036741655 0.22634932 0.1248936 0.0051713176 -0.035577238 0.2712052 -0.054564215 -0.16814332
-0.036751755 -0.0521944 -0.12989706 0.027256655 -0.16296585 0.06252686 -0.23172814 0.10558638
0.2869852 -0.14036839 -0.14425118 0.027098084 0.027583407 0.16342463 -0.0028725425 0.011854264
-0.11279849 0.045529258 0.18640059 -0.19555539 0.065378904 -0.03529601 0.20543377 -0.31398764
00000000: 5d7b 2bbd 3f80 8f3d 2207 93bd e499 153e
00000010: 95be 5fbe eab0 00be 939c 9f3d c848 393e
00000020: f2cf 613b 49b9 12be 665c 44bd 5147 92bd
00000030: 7bd3 42bd 7db6 cabd 57da e43d 7a9c a6bd
00000040: 5895 1bbe 6754 f0bd c735 4ebe a2f5 76be
00000050: df2e a13d 7823 743e 64bf 5f3e 5b33 163c
00000060: f192 d8bd 2cde ecbd f63b 933d 2f64 67be
00000070: e554 073e 9bed 05be e2b4 9dbe f1bc bcbd
00000080: 88a1 723e 79fa 623e 9361 a43d c146 823d
00000090: d0b0 243e 4ab7 f63d 4e30 ab3d 36fe 6abe
000000a0: 3de5 453d 3f22 873e dbdf 54be 106c 4b3e
000000b0: f83e 85bd 07d0 febd 43f8 31bb 1cf0 1ebd
000000c0: 676c d73d b386 0dbe b011 bf3d 2f2b 543c
000000d0: d663 aabc 56f6 9abe 7f4c 803e a615 fdbd
000000e0: 4665 16be c6e7 913e 069d 33bd 26c6 303e
000000f0: 7778 113e 2c31 25be ccdc 42be d284 f9bd
00000100: d41b a43d c3b7 4e3e b0a9 d5bb 84e4 04be
00000110: c7a4 d1bd f58c 3cbe d020 993e caae acbd
00000120: adc0 55be f0f4 57be 99e2 e03d bdca e13d
00000130: ae3b 1c3e bc5c 7fbd cb5a c6bd 339b d43d
00000140: bd63 f1bc a4b7 b1bd 7e7b aa3d eb8e 4ebe
00000150: 4e45 55be 9c92 b6bd cbdf 2abe aa7a 373d
00000160: a96b 663d ef06 533e 1d06 d73c e4a1 35bc
00000170: 17ff 58be 1452 d7bd 2797 92bd f952 37be
00000180: 6b7e 163d 1ec8 673e 37c8 ff3d 2874 a93b
00000190: 70b9 11bd 68db 8a3e ba7e 5fbd c32d 2cbe
000001a0: 0289 16bd ccc9 55bd bc03 05be 5949 df3c
000001b0: 85e0 26be 150e 803d 244a 6dbe ac3d d83d
000001c0: b9ef 923e bbbc 0fbe 95b6 13be cdfc dd3c
000001d0: 99f6 e13c c958 273e 4441 3cbb 6338 423c
000001e0: e502 e7bd e37c 3a3d ccdf 3e3e ac3f 48be
000001f0: 60e5 853d 8d92 10bd 3b5d 523e fdc2 a0be

mean.fc1.weight f4 [6, 128]
-0.015528019 0.013904119 0.040374152 -0.025503851 -0.04321579 -0.1650144 -0.05681883 0.14383017
-0.082702935 -0.002170789 -0.0019949186 0.057445135 -0.15881823 0.017957015 -0.054551646 0.15770975
-0.07986558 0.026965797 0.011674774 0.065604344 0.006116778 -0.10055566 0.073330425 -0.051047407
0.0543471 0.11342962 0.00845229 0.037842333 0.06001113 -0.045024294 0.03899122 0.09337802
0.08017209 -0.022698868 0.074102946 -0.017239317 -0.033443347 0.10845322 -0.10237197 -0.05943326
0.103658274 -0.120610304 0.010595122 0.06911426 0.052344427 -0.011427531 0.04922615 -0.00412324
-0.03248732 0.03881341 0.122208744 0.026088027 0.034678046 -0.0033520588 -0.09496368 -0.066974044
0.026761517 0.07402714 0.051140886 -0.058853153 -0.023691291 -0.10743476 0.050042726 0.06358346
0.07297373 -0.051841434 -0.120655276 0.0064364453 0.08360488 0.011146378 0.056786075 0.050350834
0.009556878 0.06650888 0.004240835 -0.111261986 -0.08396279 -0.01434348 -0.041794945 -0.037631325
0.12472424 -0.07755375 0.073931135 0.01147486 0.022942893 -0.025243098 0.046171926 -0.074597545
-0.09705325 -0.04805934 -0.025041949 -0.06511561 0.04306464 -0.09534117 -0.02177449 -0.015760614
-0.020131642 0.114369765 0.07672505 0.117377505 0.1285232 -0.06695358 -0.06907304 0.06649281
0.031124929 -0.012357306 0.093387626 0.0030609404 0.0027468703 0.032816716 0.03367268 0.09560845
-0.058907367 0.0005552546 -0.11594266 0.094825916 0.03928935 0.0550423 -0.07009462 -0.008774135
-0.08637247 0.014992126 0.0579394 -0.105963 0.045097366 0.16096193 0.06659541 0.0071199145
0.07834319 -0.0113539295 0.068033665 -0.015393208 -0.006292392 0.044494838 -0.05063599 -0.07683939
-0.054834053 0.10441037 -0.007838191 0.13327584 0.05487043 0.0933155 0.08358012 -0.049238972
0.08916065 -0.0048188725 -0.08712798 0.027922483 -0.058134615 0.10157924 -0.04427314 0.12974057
0.06608713 -0.024739038 -0.09182223 -0.091479436 -0.048109017 -0.027355257 0.038678423 -0.0047582327
0.102538384 0.06583591 0.08759577 -0.0028251552 -0.037508823 0.060185283 -0.016235013 -0.08544172
0.11683277 0.0774543 -0.040702075 -0.015483637 0.08375246 0.026646527 -0.025401803 -0.03828471
0.04936636 0.11197928 0.045911204 0.12666655 -0.039974626 0.012473449 0.046423245 -0.051281925
-0.04819166 0.107337646 0.034183845 0.07113345 -0.014396793 0.014032845 0.09574073 0.11835443
0.057594996 0.062242486 0.039843872 0.00731225 0.07613127 -0.072964214 0.10863486 0.038749464
-0.03186093 0.04396029 -0.017086212 0.067013554 -0.048266016 -0.012466615 0.06806023 0.10110437
-0.046873048 0.08100858 -0.050093647 -0.058919284 0.05343791 0.034397926 0.09557254 0.07967725
0.0065572592 -0.04676573 0.01645301 0.027098611 0.031990677 0.01907957 -0.027432011 -0.016701665
0.006142732 -0.037720196 0.044938 0.015492765 -0.05692482 0.15257584 0.07786825 -0.047753472
-0.0014619626 0.02761159 -0.013070015 0.09939527 0.07270835 -0.008869865 0.060483877 -0.09980694
0.20436247 -0.060499616 0.018313417 0.09226123 0.079021536 -0.09775073 0.08959085 0.033434663
0.04647838 0.034556985 0.09205914 0.094094925 -0.049534608 -0.039912492 -0.039952975 0.05244655
00000000: 3b69 7ebc 1ace 633c 5e5f 253d 74ed d0bc
00000010: 0a03 31bd 89f9 28be ddba 68bd 3748 133e
00000020: 2860 a9bd cc43 0ebb 2ebd 02bb 974b 6b3d
00000030: 3fa1 22be 971a 933c 8c71 5fbd aa7e 213e
00000040: 9190 a3bd 60e7 dc3c 8d47 3f3c 925b 863d
00000050: 416f c83b 20f0 cdbd 432e 963d 1617 51bd
00000060: 119b 5e3d ca4d e83d 797b 0a3c 9000 1b3d
00000070: 3bce 753d 656b 38bd 42b5 1f3d fa3c bf3d
00000080: 4431 a43d faf2 b9bc 49c3 973d 7839 8dbc
00000090: e4fb 08bd b91c de3d 65a8 d1bd 4a70 73bd
000000a0: ca4a d43d 8902 f7bd 2a97 2d3c c78b 8d3d
000000b0: 1c67 563d 8a3a 3bbc 5ca1 493d 3e1c 87bb
000000c0: 6d11 05bd cffa 1e3d 9448 fa3d 8fb6 d53c
000000d0: 910a 0e3d 37ae 5bbb 517c c2bd b029 89bd
000000e0: f83a db3c 8b9b 973d 1b79 513d 0110 71bd
000000f0: 3d14 c2bc c106 dcbd 9af9 4c3d 0c38 823d
00000100: 4073 953d af57 54bd 1d1a f7bd d1e8 d23b
00000110: 0939 ab3d 4c9f 363c 8498 683d ad3c 4e3d
00000120: 7494 1c3c cf35 883d b4f6 8a3b 53dd e3bd
00000130: aff4 abbd ea00 6bbc 2d31 2bbd 4e23 1abd
00000140: 6c6f ff3d 80d4 9ebd 3569 973d 0d01 3c3c
00000150: bcf2 bb3c 9dca cebc c61e 3d3d 99c6 98bd
00000160: dbc3 c6bd dfd9 44bd c624 cdbc 555b 85bd
00000170: 8c64 303d 3b42 c3bd 6a60 b2bc 671c 81bc
00000180: 1deb a4bc b23a ea3d 0622 9d3d 9e63 f03d
00000190: 969b 033e f51e 89bd 2a76 8dbd 622d 883d
000001a0: b5f9 fe3c 4c76 4abc 0342 bf3d 0f9a 483b
000001b0: d604 343b d26a 063d 5dec 093d 5dce c33d
000001c0: da48 71bd 818e 113a 5873 edbd 1734 c23d
000001d0: dfed 203d 0974 613d c58d 8fbd 64c1 0fbc
000001e0: 0de4 b0bd 89a1 753c dd51 6d3d 2103 d9bd
000001f0: 04b8 383d 34d3 243e 2d63 883d 2c4e e93b
00000200: 6572 a03d d505 3abc 3c55 8b3d cb33 7cbc
00000210: 6930 cebb 3840 363d af67 4fbd f85d 9dbd
00000220: ac99 60bd 1bd5 d53d c26b 00bc 7679 083e
00000230: d1bf 603d 321c bf3d 0e2c ab3d ceae 49bd
00000240: dc99 b63d a2e7 9dbb 2870 b2bd b1bd e43c
00000250: 901e 6ebd c708 d03d c157 35bd b6da 043e
00000260: b058 873d 86a9 cabc 4b0d bcbd 9259 bbbd
00000270: f60d 45bd 2218 e0bc 446d 1e3d f3ea 9bbb
00000280: a5ff d13d fad4 863d 6965 b33d 3d26 39bb
00000290: daa2 19bd d884 763d 4aff 84bc 12fc aebd
000002a0: 0546 ef3d 5ca0 9e3d 38b7 26bd 15af 7dbc
000002b0: 6986 ab3d d149 da3c 7117 d0bc 6ed0 1cbd
000002c0: 6134 4a3d 6555 e53d 630d 3c3d e0b4 013e
000002d0: 6fbc 23bd 705d 4c3c 4d26 3e3d ff0c 52bd
000002e0: 9e64 45bd d7d3 db3d 5c04 0c3d 6aae 913d
000002f0: 87e0 6bbc 05ea 653c b713 c43d cf63 f23d
00000300: bbe8 6b3d faf1 7e3d 5433 233d 999b ef3b
00000310: b6ea 9b3d 436e 95bd f47b de3d c2b7 1e3d
00000320: 9b80 02bd b40f 343d 62f8 8bbc 673e 893d
00000330: 96b2 45bd c640 4cbc 2963 8b3d cf0f cf3d
00000340: f4fd 3fbd d4e7 a53d ff2e 4dbd 5955 71bd
00000350: b6e1 5a3d d7e4 0c3d 89bb c33d d32d a33d
00000360: 47de d63b 6c8d 3fbd 76c8 863c e8fd dd3c
00000370: a808 033d c24c 9c3c 19b9 e0bc eed1 88bc
00000380: f948 c93b 7e80 1abd e910 383d 5ed5 7d3c
00000390: 002a 69bd d73c 1c3e 6479 9f3d 2599 43bd
000003a0: 539f bfba b431 e23c 9e23 56bc bf8f cb3d
000003b0: 1ee8 943d e952 11bc f1bd 773d 9567 ccbd
000003c0: 6544 513e 72ce 77bd 0506 963c 75f3 bc3d
000003d0: 0bd6 a13d 8931 c8bd 687b b73d c9f2 083d
000003e0: 1d60 3e3d a08b 0d3d 8189 bc3d d7b4 c03d
000003f0: cde4 4abd 487b 23bd bba5 23bd 32d2 563d

mean.fc1.bias f4 [6]
0.081141904 -0.027270725 -0.06723315 0.06694971 -0.0012620239 0.11606891
00000000: ba2d a63d db66 dfbc 89b1 89bd ee1c 893d
00000010: 7f6a a5ba 89b5 ed3d
